name: "BinaryMask"
layer {
  name: "hdf5_train_data"
  type: "HDF5Data"
  top: "data"
  include {
    phase: TRAIN
  }
  hdf5_data_param {
    source: "train/64/train.txt"
    batch_size: 32
    shuffle: 1
  }
}
layer {
  name: "hdf5_test_data"
  type: "HDF5Data"
  top: "data"
  include {
    phase: TEST
  }
  hdf5_data_param {
    source: "test/test.txt"
    batch_size: 32
    shuffle: 1
  }
}
layer {
  name: "slice1"
  type: "Slice"
  bottom: "data"
  top: "slice1_1"
  top: "slice1_2"
  top: "slice1_3"
  top: "slice1_4"
  top: "slice1_5"
  top: "slice1_6"
  top: "slice1_7"
  top: "slice1_8"
  top: "slice1_9"
  top: "slice1_10"
  top: "slice1_11"
  top: "slice1_12"
  top: "slice1_13"
  top: "slice1_14"
  top: "slice1_15"
  top: "slice1_16"
  top: "slice1_17"
  top: "slice1_18"
  top: "slice1_19"
  top: "slice1_20"
  top: "slice1_21"
  top: "slice1_22"
  top: "slice1_23"
  top: "slice1_24"
  top: "slice1_25"
  top: "slice1_26"
  top: "slice1_27"
  top: "slice1_28"
  top: "slice1_29"
  top: "slice1_30"
  top: "slice1_31"
  slice_param {
    axis: 1
    slice_point: 1
    slice_point: 2
    slice_point: 3
    slice_point: 4
    slice_point: 5
    slice_point: 6
    slice_point: 7
    slice_point: 8
    slice_point: 9
    slice_point: 10
    slice_point: 11
    slice_point: 12
    slice_point: 13
    slice_point: 14
    slice_point: 15
    slice_point: 16
    slice_point: 17
    slice_point: 18
    slice_point: 19
    slice_point: 20
    slice_point: 21
    slice_point: 22
    slice_point: 23
    slice_point: 24
    slice_point: 25
    slice_point: 26
    slice_point: 27
    slice_point: 28
    slice_point: 29
    slice_point: 30
  }
}
layer {
  name: "slice2_1"
  type: "Slice"
  bottom: "slice1_1"
  top: "slice2_1_1"
  top: "slice2_1_2"
  top: "slice2_1_3"
  top: "slice2_1_4"
  top: "slice2_1_5"
  top: "slice2_1_6"
  top: "slice2_1_7"
  top: "slice2_1_8"
  top: "slice2_1_9"
  top: "slice2_1_10"
  top: "slice2_1_11"
  top: "slice2_1_12"
  top: "slice2_1_13"
  top: "slice2_1_14"
  top: "slice2_1_15"
  top: "slice2_1_16"
  top: "slice2_1_17"
  top: "slice2_1_18"
  top: "slice2_1_19"
  top: "slice2_1_20"
  top: "slice2_1_21"
  top: "slice2_1_22"
  top: "slice2_1_23"
  top: "slice2_1_24"
  top: "slice2_1_25"
  top: "slice2_1_26"
  top: "slice2_1_27"
  top: "slice2_1_28"
  top: "slice2_1_29"
  top: "slice2_1_30"
  top: "slice2_1_31"
  top: "slice2_1_32"
  top: "slice2_1_33"
  top: "slice2_1_34"
  top: "slice2_1_35"
  top: "slice2_1_36"
  top: "slice2_1_37"
  top: "slice2_1_38"
  top: "slice2_1_39"
  top: "slice2_1_40"
  top: "slice2_1_41"
  top: "slice2_1_42"
  top: "slice2_1_43"
  top: "slice2_1_44"
  top: "slice2_1_45"
  top: "slice2_1_46"
  top: "slice2_1_47"
  top: "slice2_1_48"
  top: "slice2_1_49"
  top: "slice2_1_50"
  top: "slice2_1_51"
  top: "slice2_1_52"
  top: "slice2_1_53"
  top: "slice2_1_54"
  top: "slice2_1_55"
  top: "slice2_1_56"
  top: "slice2_1_57"
  top: "slice2_1_58"
  top: "slice2_1_59"
  top: "slice2_1_60"
  top: "slice2_1_61"
  top: "slice2_1_62"
  top: "slice2_1_63"
  top: "slice2_1_64"
  slice_param {
    axis: 2
    slice_point: 1
    slice_point: 2
    slice_point: 3
    slice_point: 4
    slice_point: 5
    slice_point: 6
    slice_point: 7
    slice_point: 8
    slice_point: 9
    slice_point: 10
    slice_point: 11
    slice_point: 12
    slice_point: 13
    slice_point: 14
    slice_point: 15
    slice_point: 16
    slice_point: 17
    slice_point: 18
    slice_point: 19
    slice_point: 20
    slice_point: 21
    slice_point: 22
    slice_point: 23
    slice_point: 24
    slice_point: 25
    slice_point: 26
    slice_point: 27
    slice_point: 28
    slice_point: 29
    slice_point: 30
    slice_point: 31
    slice_point: 32
    slice_point: 33
    slice_point: 34
    slice_point: 35
    slice_point: 36
    slice_point: 37
    slice_point: 38
    slice_point: 39
    slice_point: 40
    slice_point: 41
    slice_point: 42
    slice_point: 43
    slice_point: 44
    slice_point: 45
    slice_point: 46
    slice_point: 47
    slice_point: 48
    slice_point: 49
    slice_point: 50
    slice_point: 51
    slice_point: 52
    slice_point: 53
    slice_point: 54
    slice_point: 55
    slice_point: 56
    slice_point: 57
    slice_point: 58
    slice_point: 59
    slice_point: 60
    slice_point: 61
    slice_point: 62
    slice_point: 63
  }
}
layer {
  name: "slice2_2"
  type: "Slice"
  bottom: "slice1_2"
  top: "slice2_2_1"
  top: "slice2_2_2"
  top: "slice2_2_3"
  top: "slice2_2_4"
  top: "slice2_2_5"
  top: "slice2_2_6"
  top: "slice2_2_7"
  top: "slice2_2_8"
  top: "slice2_2_9"
  top: "slice2_2_10"
  top: "slice2_2_11"
  top: "slice2_2_12"
  top: "slice2_2_13"
  top: "slice2_2_14"
  top: "slice2_2_15"
  top: "slice2_2_16"
  top: "slice2_2_17"
  top: "slice2_2_18"
  top: "slice2_2_19"
  top: "slice2_2_20"
  top: "slice2_2_21"
  top: "slice2_2_22"
  top: "slice2_2_23"
  top: "slice2_2_24"
  top: "slice2_2_25"
  top: "slice2_2_26"
  top: "slice2_2_27"
  top: "slice2_2_28"
  top: "slice2_2_29"
  top: "slice2_2_30"
  top: "slice2_2_31"
  top: "slice2_2_32"
  top: "slice2_2_33"
  top: "slice2_2_34"
  top: "slice2_2_35"
  top: "slice2_2_36"
  top: "slice2_2_37"
  top: "slice2_2_38"
  top: "slice2_2_39"
  top: "slice2_2_40"
  top: "slice2_2_41"
  top: "slice2_2_42"
  top: "slice2_2_43"
  top: "slice2_2_44"
  top: "slice2_2_45"
  top: "slice2_2_46"
  top: "slice2_2_47"
  top: "slice2_2_48"
  top: "slice2_2_49"
  top: "slice2_2_50"
  top: "slice2_2_51"
  top: "slice2_2_52"
  top: "slice2_2_53"
  top: "slice2_2_54"
  top: "slice2_2_55"
  top: "slice2_2_56"
  top: "slice2_2_57"
  top: "slice2_2_58"
  top: "slice2_2_59"
  top: "slice2_2_60"
  top: "slice2_2_61"
  top: "slice2_2_62"
  top: "slice2_2_63"
  top: "slice2_2_64"
  slice_param {
    axis: 2
    slice_point: 1
    slice_point: 2
    slice_point: 3
    slice_point: 4
    slice_point: 5
    slice_point: 6
    slice_point: 7
    slice_point: 8
    slice_point: 9
    slice_point: 10
    slice_point: 11
    slice_point: 12
    slice_point: 13
    slice_point: 14
    slice_point: 15
    slice_point: 16
    slice_point: 17
    slice_point: 18
    slice_point: 19
    slice_point: 20
    slice_point: 21
    slice_point: 22
    slice_point: 23
    slice_point: 24
    slice_point: 25
    slice_point: 26
    slice_point: 27
    slice_point: 28
    slice_point: 29
    slice_point: 30
    slice_point: 31
    slice_point: 32
    slice_point: 33
    slice_point: 34
    slice_point: 35
    slice_point: 36
    slice_point: 37
    slice_point: 38
    slice_point: 39
    slice_point: 40
    slice_point: 41
    slice_point: 42
    slice_point: 43
    slice_point: 44
    slice_point: 45
    slice_point: 46
    slice_point: 47
    slice_point: 48
    slice_point: 49
    slice_point: 50
    slice_point: 51
    slice_point: 52
    slice_point: 53
    slice_point: 54
    slice_point: 55
    slice_point: 56
    slice_point: 57
    slice_point: 58
    slice_point: 59
    slice_point: 60
    slice_point: 61
    slice_point: 62
    slice_point: 63
  }
}
layer {
  name: "slice2_3"
  type: "Slice"
  bottom: "slice1_3"
  top: "slice2_3_1"
  top: "slice2_3_2"
  top: "slice2_3_3"
  top: "slice2_3_4"
  top: "slice2_3_5"
  top: "slice2_3_6"
  top: "slice2_3_7"
  top: "slice2_3_8"
  top: "slice2_3_9"
  top: "slice2_3_10"
  top: "slice2_3_11"
  top: "slice2_3_12"
  top: "slice2_3_13"
  top: "slice2_3_14"
  top: "slice2_3_15"
  top: "slice2_3_16"
  top: "slice2_3_17"
  top: "slice2_3_18"
  top: "slice2_3_19"
  top: "slice2_3_20"
  top: "slice2_3_21"
  top: "slice2_3_22"
  top: "slice2_3_23"
  top: "slice2_3_24"
  top: "slice2_3_25"
  top: "slice2_3_26"
  top: "slice2_3_27"
  top: "slice2_3_28"
  top: "slice2_3_29"
  top: "slice2_3_30"
  top: "slice2_3_31"
  top: "slice2_3_32"
  top: "slice2_3_33"
  top: "slice2_3_34"
  top: "slice2_3_35"
  top: "slice2_3_36"
  top: "slice2_3_37"
  top: "slice2_3_38"
  top: "slice2_3_39"
  top: "slice2_3_40"
  top: "slice2_3_41"
  top: "slice2_3_42"
  top: "slice2_3_43"
  top: "slice2_3_44"
  top: "slice2_3_45"
  top: "slice2_3_46"
  top: "slice2_3_47"
  top: "slice2_3_48"
  top: "slice2_3_49"
  top: "slice2_3_50"
  top: "slice2_3_51"
  top: "slice2_3_52"
  top: "slice2_3_53"
  top: "slice2_3_54"
  top: "slice2_3_55"
  top: "slice2_3_56"
  top: "slice2_3_57"
  top: "slice2_3_58"
  top: "slice2_3_59"
  top: "slice2_3_60"
  top: "slice2_3_61"
  top: "slice2_3_62"
  top: "slice2_3_63"
  top: "slice2_3_64"
  slice_param {
    axis: 2
    slice_point: 1
    slice_point: 2
    slice_point: 3
    slice_point: 4
    slice_point: 5
    slice_point: 6
    slice_point: 7
    slice_point: 8
    slice_point: 9
    slice_point: 10
    slice_point: 11
    slice_point: 12
    slice_point: 13
    slice_point: 14
    slice_point: 15
    slice_point: 16
    slice_point: 17
    slice_point: 18
    slice_point: 19
    slice_point: 20
    slice_point: 21
    slice_point: 22
    slice_point: 23
    slice_point: 24
    slice_point: 25
    slice_point: 26
    slice_point: 27
    slice_point: 28
    slice_point: 29
    slice_point: 30
    slice_point: 31
    slice_point: 32
    slice_point: 33
    slice_point: 34
    slice_point: 35
    slice_point: 36
    slice_point: 37
    slice_point: 38
    slice_point: 39
    slice_point: 40
    slice_point: 41
    slice_point: 42
    slice_point: 43
    slice_point: 44
    slice_point: 45
    slice_point: 46
    slice_point: 47
    slice_point: 48
    slice_point: 49
    slice_point: 50
    slice_point: 51
    slice_point: 52
    slice_point: 53
    slice_point: 54
    slice_point: 55
    slice_point: 56
    slice_point: 57
    slice_point: 58
    slice_point: 59
    slice_point: 60
    slice_point: 61
    slice_point: 62
    slice_point: 63
  }
}
layer {
  name: "slice2_4"
  type: "Slice"
  bottom: "slice1_4"
  top: "slice2_4_1"
  top: "slice2_4_2"
  top: "slice2_4_3"
  top: "slice2_4_4"
  top: "slice2_4_5"
  top: "slice2_4_6"
  top: "slice2_4_7"
  top: "slice2_4_8"
  top: "slice2_4_9"
  top: "slice2_4_10"
  top: "slice2_4_11"
  top: "slice2_4_12"
  top: "slice2_4_13"
  top: "slice2_4_14"
  top: "slice2_4_15"
  top: "slice2_4_16"
  top: "slice2_4_17"
  top: "slice2_4_18"
  top: "slice2_4_19"
  top: "slice2_4_20"
  top: "slice2_4_21"
  top: "slice2_4_22"
  top: "slice2_4_23"
  top: "slice2_4_24"
  top: "slice2_4_25"
  top: "slice2_4_26"
  top: "slice2_4_27"
  top: "slice2_4_28"
  top: "slice2_4_29"
  top: "slice2_4_30"
  top: "slice2_4_31"
  top: "slice2_4_32"
  top: "slice2_4_33"
  top: "slice2_4_34"
  top: "slice2_4_35"
  top: "slice2_4_36"
  top: "slice2_4_37"
  top: "slice2_4_38"
  top: "slice2_4_39"
  top: "slice2_4_40"
  top: "slice2_4_41"
  top: "slice2_4_42"
  top: "slice2_4_43"
  top: "slice2_4_44"
  top: "slice2_4_45"
  top: "slice2_4_46"
  top: "slice2_4_47"
  top: "slice2_4_48"
  top: "slice2_4_49"
  top: "slice2_4_50"
  top: "slice2_4_51"
  top: "slice2_4_52"
  top: "slice2_4_53"
  top: "slice2_4_54"
  top: "slice2_4_55"
  top: "slice2_4_56"
  top: "slice2_4_57"
  top: "slice2_4_58"
  top: "slice2_4_59"
  top: "slice2_4_60"
  top: "slice2_4_61"
  top: "slice2_4_62"
  top: "slice2_4_63"
  top: "slice2_4_64"
  slice_param {
    axis: 2
    slice_point: 1
    slice_point: 2
    slice_point: 3
    slice_point: 4
    slice_point: 5
    slice_point: 6
    slice_point: 7
    slice_point: 8
    slice_point: 9
    slice_point: 10
    slice_point: 11
    slice_point: 12
    slice_point: 13
    slice_point: 14
    slice_point: 15
    slice_point: 16
    slice_point: 17
    slice_point: 18
    slice_point: 19
    slice_point: 20
    slice_point: 21
    slice_point: 22
    slice_point: 23
    slice_point: 24
    slice_point: 25
    slice_point: 26
    slice_point: 27
    slice_point: 28
    slice_point: 29
    slice_point: 30
    slice_point: 31
    slice_point: 32
    slice_point: 33
    slice_point: 34
    slice_point: 35
    slice_point: 36
    slice_point: 37
    slice_point: 38
    slice_point: 39
    slice_point: 40
    slice_point: 41
    slice_point: 42
    slice_point: 43
    slice_point: 44
    slice_point: 45
    slice_point: 46
    slice_point: 47
    slice_point: 48
    slice_point: 49
    slice_point: 50
    slice_point: 51
    slice_point: 52
    slice_point: 53
    slice_point: 54
    slice_point: 55
    slice_point: 56
    slice_point: 57
    slice_point: 58
    slice_point: 59
    slice_point: 60
    slice_point: 61
    slice_point: 62
    slice_point: 63
  }
}
layer {
  name: "slice2_5"
  type: "Slice"
  bottom: "slice1_5"
  top: "slice2_5_1"
  top: "slice2_5_2"
  top: "slice2_5_3"
  top: "slice2_5_4"
  top: "slice2_5_5"
  top: "slice2_5_6"
  top: "slice2_5_7"
  top: "slice2_5_8"
  top: "slice2_5_9"
  top: "slice2_5_10"
  top: "slice2_5_11"
  top: "slice2_5_12"
  top: "slice2_5_13"
  top: "slice2_5_14"
  top: "slice2_5_15"
  top: "slice2_5_16"
  top: "slice2_5_17"
  top: "slice2_5_18"
  top: "slice2_5_19"
  top: "slice2_5_20"
  top: "slice2_5_21"
  top: "slice2_5_22"
  top: "slice2_5_23"
  top: "slice2_5_24"
  top: "slice2_5_25"
  top: "slice2_5_26"
  top: "slice2_5_27"
  top: "slice2_5_28"
  top: "slice2_5_29"
  top: "slice2_5_30"
  top: "slice2_5_31"
  top: "slice2_5_32"
  top: "slice2_5_33"
  top: "slice2_5_34"
  top: "slice2_5_35"
  top: "slice2_5_36"
  top: "slice2_5_37"
  top: "slice2_5_38"
  top: "slice2_5_39"
  top: "slice2_5_40"
  top: "slice2_5_41"
  top: "slice2_5_42"
  top: "slice2_5_43"
  top: "slice2_5_44"
  top: "slice2_5_45"
  top: "slice2_5_46"
  top: "slice2_5_47"
  top: "slice2_5_48"
  top: "slice2_5_49"
  top: "slice2_5_50"
  top: "slice2_5_51"
  top: "slice2_5_52"
  top: "slice2_5_53"
  top: "slice2_5_54"
  top: "slice2_5_55"
  top: "slice2_5_56"
  top: "slice2_5_57"
  top: "slice2_5_58"
  top: "slice2_5_59"
  top: "slice2_5_60"
  top: "slice2_5_61"
  top: "slice2_5_62"
  top: "slice2_5_63"
  top: "slice2_5_64"
  slice_param {
    axis: 2
    slice_point: 1
    slice_point: 2
    slice_point: 3
    slice_point: 4
    slice_point: 5
    slice_point: 6
    slice_point: 7
    slice_point: 8
    slice_point: 9
    slice_point: 10
    slice_point: 11
    slice_point: 12
    slice_point: 13
    slice_point: 14
    slice_point: 15
    slice_point: 16
    slice_point: 17
    slice_point: 18
    slice_point: 19
    slice_point: 20
    slice_point: 21
    slice_point: 22
    slice_point: 23
    slice_point: 24
    slice_point: 25
    slice_point: 26
    slice_point: 27
    slice_point: 28
    slice_point: 29
    slice_point: 30
    slice_point: 31
    slice_point: 32
    slice_point: 33
    slice_point: 34
    slice_point: 35
    slice_point: 36
    slice_point: 37
    slice_point: 38
    slice_point: 39
    slice_point: 40
    slice_point: 41
    slice_point: 42
    slice_point: 43
    slice_point: 44
    slice_point: 45
    slice_point: 46
    slice_point: 47
    slice_point: 48
    slice_point: 49
    slice_point: 50
    slice_point: 51
    slice_point: 52
    slice_point: 53
    slice_point: 54
    slice_point: 55
    slice_point: 56
    slice_point: 57
    slice_point: 58
    slice_point: 59
    slice_point: 60
    slice_point: 61
    slice_point: 62
    slice_point: 63
  }
}
layer {
  name: "slice2_6"
  type: "Slice"
  bottom: "slice1_6"
  top: "slice2_6_1"
  top: "slice2_6_2"
  top: "slice2_6_3"
  top: "slice2_6_4"
  top: "slice2_6_5"
  top: "slice2_6_6"
  top: "slice2_6_7"
  top: "slice2_6_8"
  top: "slice2_6_9"
  top: "slice2_6_10"
  top: "slice2_6_11"
  top: "slice2_6_12"
  top: "slice2_6_13"
  top: "slice2_6_14"
  top: "slice2_6_15"
  top: "slice2_6_16"
  top: "slice2_6_17"
  top: "slice2_6_18"
  top: "slice2_6_19"
  top: "slice2_6_20"
  top: "slice2_6_21"
  top: "slice2_6_22"
  top: "slice2_6_23"
  top: "slice2_6_24"
  top: "slice2_6_25"
  top: "slice2_6_26"
  top: "slice2_6_27"
  top: "slice2_6_28"
  top: "slice2_6_29"
  top: "slice2_6_30"
  top: "slice2_6_31"
  top: "slice2_6_32"
  top: "slice2_6_33"
  top: "slice2_6_34"
  top: "slice2_6_35"
  top: "slice2_6_36"
  top: "slice2_6_37"
  top: "slice2_6_38"
  top: "slice2_6_39"
  top: "slice2_6_40"
  top: "slice2_6_41"
  top: "slice2_6_42"
  top: "slice2_6_43"
  top: "slice2_6_44"
  top: "slice2_6_45"
  top: "slice2_6_46"
  top: "slice2_6_47"
  top: "slice2_6_48"
  top: "slice2_6_49"
  top: "slice2_6_50"
  top: "slice2_6_51"
  top: "slice2_6_52"
  top: "slice2_6_53"
  top: "slice2_6_54"
  top: "slice2_6_55"
  top: "slice2_6_56"
  top: "slice2_6_57"
  top: "slice2_6_58"
  top: "slice2_6_59"
  top: "slice2_6_60"
  top: "slice2_6_61"
  top: "slice2_6_62"
  top: "slice2_6_63"
  top: "slice2_6_64"
  slice_param {
    axis: 2
    slice_point: 1
    slice_point: 2
    slice_point: 3
    slice_point: 4
    slice_point: 5
    slice_point: 6
    slice_point: 7
    slice_point: 8
    slice_point: 9
    slice_point: 10
    slice_point: 11
    slice_point: 12
    slice_point: 13
    slice_point: 14
    slice_point: 15
    slice_point: 16
    slice_point: 17
    slice_point: 18
    slice_point: 19
    slice_point: 20
    slice_point: 21
    slice_point: 22
    slice_point: 23
    slice_point: 24
    slice_point: 25
    slice_point: 26
    slice_point: 27
    slice_point: 28
    slice_point: 29
    slice_point: 30
    slice_point: 31
    slice_point: 32
    slice_point: 33
    slice_point: 34
    slice_point: 35
    slice_point: 36
    slice_point: 37
    slice_point: 38
    slice_point: 39
    slice_point: 40
    slice_point: 41
    slice_point: 42
    slice_point: 43
    slice_point: 44
    slice_point: 45
    slice_point: 46
    slice_point: 47
    slice_point: 48
    slice_point: 49
    slice_point: 50
    slice_point: 51
    slice_point: 52
    slice_point: 53
    slice_point: 54
    slice_point: 55
    slice_point: 56
    slice_point: 57
    slice_point: 58
    slice_point: 59
    slice_point: 60
    slice_point: 61
    slice_point: 62
    slice_point: 63
  }
}
layer {
  name: "slice2_7"
  type: "Slice"
  bottom: "slice1_7"
  top: "slice2_7_1"
  top: "slice2_7_2"
  top: "slice2_7_3"
  top: "slice2_7_4"
  top: "slice2_7_5"
  top: "slice2_7_6"
  top: "slice2_7_7"
  top: "slice2_7_8"
  top: "slice2_7_9"
  top: "slice2_7_10"
  top: "slice2_7_11"
  top: "slice2_7_12"
  top: "slice2_7_13"
  top: "slice2_7_14"
  top: "slice2_7_15"
  top: "slice2_7_16"
  top: "slice2_7_17"
  top: "slice2_7_18"
  top: "slice2_7_19"
  top: "slice2_7_20"
  top: "slice2_7_21"
  top: "slice2_7_22"
  top: "slice2_7_23"
  top: "slice2_7_24"
  top: "slice2_7_25"
  top: "slice2_7_26"
  top: "slice2_7_27"
  top: "slice2_7_28"
  top: "slice2_7_29"
  top: "slice2_7_30"
  top: "slice2_7_31"
  top: "slice2_7_32"
  top: "slice2_7_33"
  top: "slice2_7_34"
  top: "slice2_7_35"
  top: "slice2_7_36"
  top: "slice2_7_37"
  top: "slice2_7_38"
  top: "slice2_7_39"
  top: "slice2_7_40"
  top: "slice2_7_41"
  top: "slice2_7_42"
  top: "slice2_7_43"
  top: "slice2_7_44"
  top: "slice2_7_45"
  top: "slice2_7_46"
  top: "slice2_7_47"
  top: "slice2_7_48"
  top: "slice2_7_49"
  top: "slice2_7_50"
  top: "slice2_7_51"
  top: "slice2_7_52"
  top: "slice2_7_53"
  top: "slice2_7_54"
  top: "slice2_7_55"
  top: "slice2_7_56"
  top: "slice2_7_57"
  top: "slice2_7_58"
  top: "slice2_7_59"
  top: "slice2_7_60"
  top: "slice2_7_61"
  top: "slice2_7_62"
  top: "slice2_7_63"
  top: "slice2_7_64"
  slice_param {
    axis: 2
    slice_point: 1
    slice_point: 2
    slice_point: 3
    slice_point: 4
    slice_point: 5
    slice_point: 6
    slice_point: 7
    slice_point: 8
    slice_point: 9
    slice_point: 10
    slice_point: 11
    slice_point: 12
    slice_point: 13
    slice_point: 14
    slice_point: 15
    slice_point: 16
    slice_point: 17
    slice_point: 18
    slice_point: 19
    slice_point: 20
    slice_point: 21
    slice_point: 22
    slice_point: 23
    slice_point: 24
    slice_point: 25
    slice_point: 26
    slice_point: 27
    slice_point: 28
    slice_point: 29
    slice_point: 30
    slice_point: 31
    slice_point: 32
    slice_point: 33
    slice_point: 34
    slice_point: 35
    slice_point: 36
    slice_point: 37
    slice_point: 38
    slice_point: 39
    slice_point: 40
    slice_point: 41
    slice_point: 42
    slice_point: 43
    slice_point: 44
    slice_point: 45
    slice_point: 46
    slice_point: 47
    slice_point: 48
    slice_point: 49
    slice_point: 50
    slice_point: 51
    slice_point: 52
    slice_point: 53
    slice_point: 54
    slice_point: 55
    slice_point: 56
    slice_point: 57
    slice_point: 58
    slice_point: 59
    slice_point: 60
    slice_point: 61
    slice_point: 62
    slice_point: 63
  }
}
layer {
  name: "slice2_8"
  type: "Slice"
  bottom: "slice1_8"
  top: "slice2_8_1"
  top: "slice2_8_2"
  top: "slice2_8_3"
  top: "slice2_8_4"
  top: "slice2_8_5"
  top: "slice2_8_6"
  top: "slice2_8_7"
  top: "slice2_8_8"
  top: "slice2_8_9"
  top: "slice2_8_10"
  top: "slice2_8_11"
  top: "slice2_8_12"
  top: "slice2_8_13"
  top: "slice2_8_14"
  top: "slice2_8_15"
  top: "slice2_8_16"
  top: "slice2_8_17"
  top: "slice2_8_18"
  top: "slice2_8_19"
  top: "slice2_8_20"
  top: "slice2_8_21"
  top: "slice2_8_22"
  top: "slice2_8_23"
  top: "slice2_8_24"
  top: "slice2_8_25"
  top: "slice2_8_26"
  top: "slice2_8_27"
  top: "slice2_8_28"
  top: "slice2_8_29"
  top: "slice2_8_30"
  top: "slice2_8_31"
  top: "slice2_8_32"
  top: "slice2_8_33"
  top: "slice2_8_34"
  top: "slice2_8_35"
  top: "slice2_8_36"
  top: "slice2_8_37"
  top: "slice2_8_38"
  top: "slice2_8_39"
  top: "slice2_8_40"
  top: "slice2_8_41"
  top: "slice2_8_42"
  top: "slice2_8_43"
  top: "slice2_8_44"
  top: "slice2_8_45"
  top: "slice2_8_46"
  top: "slice2_8_47"
  top: "slice2_8_48"
  top: "slice2_8_49"
  top: "slice2_8_50"
  top: "slice2_8_51"
  top: "slice2_8_52"
  top: "slice2_8_53"
  top: "slice2_8_54"
  top: "slice2_8_55"
  top: "slice2_8_56"
  top: "slice2_8_57"
  top: "slice2_8_58"
  top: "slice2_8_59"
  top: "slice2_8_60"
  top: "slice2_8_61"
  top: "slice2_8_62"
  top: "slice2_8_63"
  top: "slice2_8_64"
  slice_param {
    axis: 2
    slice_point: 1
    slice_point: 2
    slice_point: 3
    slice_point: 4
    slice_point: 5
    slice_point: 6
    slice_point: 7
    slice_point: 8
    slice_point: 9
    slice_point: 10
    slice_point: 11
    slice_point: 12
    slice_point: 13
    slice_point: 14
    slice_point: 15
    slice_point: 16
    slice_point: 17
    slice_point: 18
    slice_point: 19
    slice_point: 20
    slice_point: 21
    slice_point: 22
    slice_point: 23
    slice_point: 24
    slice_point: 25
    slice_point: 26
    slice_point: 27
    slice_point: 28
    slice_point: 29
    slice_point: 30
    slice_point: 31
    slice_point: 32
    slice_point: 33
    slice_point: 34
    slice_point: 35
    slice_point: 36
    slice_point: 37
    slice_point: 38
    slice_point: 39
    slice_point: 40
    slice_point: 41
    slice_point: 42
    slice_point: 43
    slice_point: 44
    slice_point: 45
    slice_point: 46
    slice_point: 47
    slice_point: 48
    slice_point: 49
    slice_point: 50
    slice_point: 51
    slice_point: 52
    slice_point: 53
    slice_point: 54
    slice_point: 55
    slice_point: 56
    slice_point: 57
    slice_point: 58
    slice_point: 59
    slice_point: 60
    slice_point: 61
    slice_point: 62
    slice_point: 63
  }
}
layer {
  name: "slice2_9"
  type: "Slice"
  bottom: "slice1_9"
  top: "slice2_9_1"
  top: "slice2_9_2"
  top: "slice2_9_3"
  top: "slice2_9_4"
  top: "slice2_9_5"
  top: "slice2_9_6"
  top: "slice2_9_7"
  top: "slice2_9_8"
  top: "slice2_9_9"
  top: "slice2_9_10"
  top: "slice2_9_11"
  top: "slice2_9_12"
  top: "slice2_9_13"
  top: "slice2_9_14"
  top: "slice2_9_15"
  top: "slice2_9_16"
  top: "slice2_9_17"
  top: "slice2_9_18"
  top: "slice2_9_19"
  top: "slice2_9_20"
  top: "slice2_9_21"
  top: "slice2_9_22"
  top: "slice2_9_23"
  top: "slice2_9_24"
  top: "slice2_9_25"
  top: "slice2_9_26"
  top: "slice2_9_27"
  top: "slice2_9_28"
  top: "slice2_9_29"
  top: "slice2_9_30"
  top: "slice2_9_31"
  top: "slice2_9_32"
  top: "slice2_9_33"
  top: "slice2_9_34"
  top: "slice2_9_35"
  top: "slice2_9_36"
  top: "slice2_9_37"
  top: "slice2_9_38"
  top: "slice2_9_39"
  top: "slice2_9_40"
  top: "slice2_9_41"
  top: "slice2_9_42"
  top: "slice2_9_43"
  top: "slice2_9_44"
  top: "slice2_9_45"
  top: "slice2_9_46"
  top: "slice2_9_47"
  top: "slice2_9_48"
  top: "slice2_9_49"
  top: "slice2_9_50"
  top: "slice2_9_51"
  top: "slice2_9_52"
  top: "slice2_9_53"
  top: "slice2_9_54"
  top: "slice2_9_55"
  top: "slice2_9_56"
  top: "slice2_9_57"
  top: "slice2_9_58"
  top: "slice2_9_59"
  top: "slice2_9_60"
  top: "slice2_9_61"
  top: "slice2_9_62"
  top: "slice2_9_63"
  top: "slice2_9_64"
  slice_param {
    axis: 2
    slice_point: 1
    slice_point: 2
    slice_point: 3
    slice_point: 4
    slice_point: 5
    slice_point: 6
    slice_point: 7
    slice_point: 8
    slice_point: 9
    slice_point: 10
    slice_point: 11
    slice_point: 12
    slice_point: 13
    slice_point: 14
    slice_point: 15
    slice_point: 16
    slice_point: 17
    slice_point: 18
    slice_point: 19
    slice_point: 20
    slice_point: 21
    slice_point: 22
    slice_point: 23
    slice_point: 24
    slice_point: 25
    slice_point: 26
    slice_point: 27
    slice_point: 28
    slice_point: 29
    slice_point: 30
    slice_point: 31
    slice_point: 32
    slice_point: 33
    slice_point: 34
    slice_point: 35
    slice_point: 36
    slice_point: 37
    slice_point: 38
    slice_point: 39
    slice_point: 40
    slice_point: 41
    slice_point: 42
    slice_point: 43
    slice_point: 44
    slice_point: 45
    slice_point: 46
    slice_point: 47
    slice_point: 48
    slice_point: 49
    slice_point: 50
    slice_point: 51
    slice_point: 52
    slice_point: 53
    slice_point: 54
    slice_point: 55
    slice_point: 56
    slice_point: 57
    slice_point: 58
    slice_point: 59
    slice_point: 60
    slice_point: 61
    slice_point: 62
    slice_point: 63
  }
}
layer {
  name: "slice2_10"
  type: "Slice"
  bottom: "slice1_10"
  top: "slice2_10_1"
  top: "slice2_10_2"
  top: "slice2_10_3"
  top: "slice2_10_4"
  top: "slice2_10_5"
  top: "slice2_10_6"
  top: "slice2_10_7"
  top: "slice2_10_8"
  top: "slice2_10_9"
  top: "slice2_10_10"
  top: "slice2_10_11"
  top: "slice2_10_12"
  top: "slice2_10_13"
  top: "slice2_10_14"
  top: "slice2_10_15"
  top: "slice2_10_16"
  top: "slice2_10_17"
  top: "slice2_10_18"
  top: "slice2_10_19"
  top: "slice2_10_20"
  top: "slice2_10_21"
  top: "slice2_10_22"
  top: "slice2_10_23"
  top: "slice2_10_24"
  top: "slice2_10_25"
  top: "slice2_10_26"
  top: "slice2_10_27"
  top: "slice2_10_28"
  top: "slice2_10_29"
  top: "slice2_10_30"
  top: "slice2_10_31"
  top: "slice2_10_32"
  top: "slice2_10_33"
  top: "slice2_10_34"
  top: "slice2_10_35"
  top: "slice2_10_36"
  top: "slice2_10_37"
  top: "slice2_10_38"
  top: "slice2_10_39"
  top: "slice2_10_40"
  top: "slice2_10_41"
  top: "slice2_10_42"
  top: "slice2_10_43"
  top: "slice2_10_44"
  top: "slice2_10_45"
  top: "slice2_10_46"
  top: "slice2_10_47"
  top: "slice2_10_48"
  top: "slice2_10_49"
  top: "slice2_10_50"
  top: "slice2_10_51"
  top: "slice2_10_52"
  top: "slice2_10_53"
  top: "slice2_10_54"
  top: "slice2_10_55"
  top: "slice2_10_56"
  top: "slice2_10_57"
  top: "slice2_10_58"
  top: "slice2_10_59"
  top: "slice2_10_60"
  top: "slice2_10_61"
  top: "slice2_10_62"
  top: "slice2_10_63"
  top: "slice2_10_64"
  slice_param {
    axis: 2
    slice_point: 1
    slice_point: 2
    slice_point: 3
    slice_point: 4
    slice_point: 5
    slice_point: 6
    slice_point: 7
    slice_point: 8
    slice_point: 9
    slice_point: 10
    slice_point: 11
    slice_point: 12
    slice_point: 13
    slice_point: 14
    slice_point: 15
    slice_point: 16
    slice_point: 17
    slice_point: 18
    slice_point: 19
    slice_point: 20
    slice_point: 21
    slice_point: 22
    slice_point: 23
    slice_point: 24
    slice_point: 25
    slice_point: 26
    slice_point: 27
    slice_point: 28
    slice_point: 29
    slice_point: 30
    slice_point: 31
    slice_point: 32
    slice_point: 33
    slice_point: 34
    slice_point: 35
    slice_point: 36
    slice_point: 37
    slice_point: 38
    slice_point: 39
    slice_point: 40
    slice_point: 41
    slice_point: 42
    slice_point: 43
    slice_point: 44
    slice_point: 45
    slice_point: 46
    slice_point: 47
    slice_point: 48
    slice_point: 49
    slice_point: 50
    slice_point: 51
    slice_point: 52
    slice_point: 53
    slice_point: 54
    slice_point: 55
    slice_point: 56
    slice_point: 57
    slice_point: 58
    slice_point: 59
    slice_point: 60
    slice_point: 61
    slice_point: 62
    slice_point: 63
  }
}
layer {
  name: "slice2_11"
  type: "Slice"
  bottom: "slice1_11"
  top: "slice2_11_1"
  top: "slice2_11_2"
  top: "slice2_11_3"
  top: "slice2_11_4"
  top: "slice2_11_5"
  top: "slice2_11_6"
  top: "slice2_11_7"
  top: "slice2_11_8"
  top: "slice2_11_9"
  top: "slice2_11_10"
  top: "slice2_11_11"
  top: "slice2_11_12"
  top: "slice2_11_13"
  top: "slice2_11_14"
  top: "slice2_11_15"
  top: "slice2_11_16"
  top: "slice2_11_17"
  top: "slice2_11_18"
  top: "slice2_11_19"
  top: "slice2_11_20"
  top: "slice2_11_21"
  top: "slice2_11_22"
  top: "slice2_11_23"
  top: "slice2_11_24"
  top: "slice2_11_25"
  top: "slice2_11_26"
  top: "slice2_11_27"
  top: "slice2_11_28"
  top: "slice2_11_29"
  top: "slice2_11_30"
  top: "slice2_11_31"
  top: "slice2_11_32"
  top: "slice2_11_33"
  top: "slice2_11_34"
  top: "slice2_11_35"
  top: "slice2_11_36"
  top: "slice2_11_37"
  top: "slice2_11_38"
  top: "slice2_11_39"
  top: "slice2_11_40"
  top: "slice2_11_41"
  top: "slice2_11_42"
  top: "slice2_11_43"
  top: "slice2_11_44"
  top: "slice2_11_45"
  top: "slice2_11_46"
  top: "slice2_11_47"
  top: "slice2_11_48"
  top: "slice2_11_49"
  top: "slice2_11_50"
  top: "slice2_11_51"
  top: "slice2_11_52"
  top: "slice2_11_53"
  top: "slice2_11_54"
  top: "slice2_11_55"
  top: "slice2_11_56"
  top: "slice2_11_57"
  top: "slice2_11_58"
  top: "slice2_11_59"
  top: "slice2_11_60"
  top: "slice2_11_61"
  top: "slice2_11_62"
  top: "slice2_11_63"
  top: "slice2_11_64"
  slice_param {
    axis: 2
    slice_point: 1
    slice_point: 2
    slice_point: 3
    slice_point: 4
    slice_point: 5
    slice_point: 6
    slice_point: 7
    slice_point: 8
    slice_point: 9
    slice_point: 10
    slice_point: 11
    slice_point: 12
    slice_point: 13
    slice_point: 14
    slice_point: 15
    slice_point: 16
    slice_point: 17
    slice_point: 18
    slice_point: 19
    slice_point: 20
    slice_point: 21
    slice_point: 22
    slice_point: 23
    slice_point: 24
    slice_point: 25
    slice_point: 26
    slice_point: 27
    slice_point: 28
    slice_point: 29
    slice_point: 30
    slice_point: 31
    slice_point: 32
    slice_point: 33
    slice_point: 34
    slice_point: 35
    slice_point: 36
    slice_point: 37
    slice_point: 38
    slice_point: 39
    slice_point: 40
    slice_point: 41
    slice_point: 42
    slice_point: 43
    slice_point: 44
    slice_point: 45
    slice_point: 46
    slice_point: 47
    slice_point: 48
    slice_point: 49
    slice_point: 50
    slice_point: 51
    slice_point: 52
    slice_point: 53
    slice_point: 54
    slice_point: 55
    slice_point: 56
    slice_point: 57
    slice_point: 58
    slice_point: 59
    slice_point: 60
    slice_point: 61
    slice_point: 62
    slice_point: 63
  }
}
layer {
  name: "slice2_12"
  type: "Slice"
  bottom: "slice1_12"
  top: "slice2_12_1"
  top: "slice2_12_2"
  top: "slice2_12_3"
  top: "slice2_12_4"
  top: "slice2_12_5"
  top: "slice2_12_6"
  top: "slice2_12_7"
  top: "slice2_12_8"
  top: "slice2_12_9"
  top: "slice2_12_10"
  top: "slice2_12_11"
  top: "slice2_12_12"
  top: "slice2_12_13"
  top: "slice2_12_14"
  top: "slice2_12_15"
  top: "slice2_12_16"
  top: "slice2_12_17"
  top: "slice2_12_18"
  top: "slice2_12_19"
  top: "slice2_12_20"
  top: "slice2_12_21"
  top: "slice2_12_22"
  top: "slice2_12_23"
  top: "slice2_12_24"
  top: "slice2_12_25"
  top: "slice2_12_26"
  top: "slice2_12_27"
  top: "slice2_12_28"
  top: "slice2_12_29"
  top: "slice2_12_30"
  top: "slice2_12_31"
  top: "slice2_12_32"
  top: "slice2_12_33"
  top: "slice2_12_34"
  top: "slice2_12_35"
  top: "slice2_12_36"
  top: "slice2_12_37"
  top: "slice2_12_38"
  top: "slice2_12_39"
  top: "slice2_12_40"
  top: "slice2_12_41"
  top: "slice2_12_42"
  top: "slice2_12_43"
  top: "slice2_12_44"
  top: "slice2_12_45"
  top: "slice2_12_46"
  top: "slice2_12_47"
  top: "slice2_12_48"
  top: "slice2_12_49"
  top: "slice2_12_50"
  top: "slice2_12_51"
  top: "slice2_12_52"
  top: "slice2_12_53"
  top: "slice2_12_54"
  top: "slice2_12_55"
  top: "slice2_12_56"
  top: "slice2_12_57"
  top: "slice2_12_58"
  top: "slice2_12_59"
  top: "slice2_12_60"
  top: "slice2_12_61"
  top: "slice2_12_62"
  top: "slice2_12_63"
  top: "slice2_12_64"
  slice_param {
    axis: 2
    slice_point: 1
    slice_point: 2
    slice_point: 3
    slice_point: 4
    slice_point: 5
    slice_point: 6
    slice_point: 7
    slice_point: 8
    slice_point: 9
    slice_point: 10
    slice_point: 11
    slice_point: 12
    slice_point: 13
    slice_point: 14
    slice_point: 15
    slice_point: 16
    slice_point: 17
    slice_point: 18
    slice_point: 19
    slice_point: 20
    slice_point: 21
    slice_point: 22
    slice_point: 23
    slice_point: 24
    slice_point: 25
    slice_point: 26
    slice_point: 27
    slice_point: 28
    slice_point: 29
    slice_point: 30
    slice_point: 31
    slice_point: 32
    slice_point: 33
    slice_point: 34
    slice_point: 35
    slice_point: 36
    slice_point: 37
    slice_point: 38
    slice_point: 39
    slice_point: 40
    slice_point: 41
    slice_point: 42
    slice_point: 43
    slice_point: 44
    slice_point: 45
    slice_point: 46
    slice_point: 47
    slice_point: 48
    slice_point: 49
    slice_point: 50
    slice_point: 51
    slice_point: 52
    slice_point: 53
    slice_point: 54
    slice_point: 55
    slice_point: 56
    slice_point: 57
    slice_point: 58
    slice_point: 59
    slice_point: 60
    slice_point: 61
    slice_point: 62
    slice_point: 63
  }
}
layer {
  name: "slice2_13"
  type: "Slice"
  bottom: "slice1_13"
  top: "slice2_13_1"
  top: "slice2_13_2"
  top: "slice2_13_3"
  top: "slice2_13_4"
  top: "slice2_13_5"
  top: "slice2_13_6"
  top: "slice2_13_7"
  top: "slice2_13_8"
  top: "slice2_13_9"
  top: "slice2_13_10"
  top: "slice2_13_11"
  top: "slice2_13_12"
  top: "slice2_13_13"
  top: "slice2_13_14"
  top: "slice2_13_15"
  top: "slice2_13_16"
  top: "slice2_13_17"
  top: "slice2_13_18"
  top: "slice2_13_19"
  top: "slice2_13_20"
  top: "slice2_13_21"
  top: "slice2_13_22"
  top: "slice2_13_23"
  top: "slice2_13_24"
  top: "slice2_13_25"
  top: "slice2_13_26"
  top: "slice2_13_27"
  top: "slice2_13_28"
  top: "slice2_13_29"
  top: "slice2_13_30"
  top: "slice2_13_31"
  top: "slice2_13_32"
  top: "slice2_13_33"
  top: "slice2_13_34"
  top: "slice2_13_35"
  top: "slice2_13_36"
  top: "slice2_13_37"
  top: "slice2_13_38"
  top: "slice2_13_39"
  top: "slice2_13_40"
  top: "slice2_13_41"
  top: "slice2_13_42"
  top: "slice2_13_43"
  top: "slice2_13_44"
  top: "slice2_13_45"
  top: "slice2_13_46"
  top: "slice2_13_47"
  top: "slice2_13_48"
  top: "slice2_13_49"
  top: "slice2_13_50"
  top: "slice2_13_51"
  top: "slice2_13_52"
  top: "slice2_13_53"
  top: "slice2_13_54"
  top: "slice2_13_55"
  top: "slice2_13_56"
  top: "slice2_13_57"
  top: "slice2_13_58"
  top: "slice2_13_59"
  top: "slice2_13_60"
  top: "slice2_13_61"
  top: "slice2_13_62"
  top: "slice2_13_63"
  top: "slice2_13_64"
  slice_param {
    axis: 2
    slice_point: 1
    slice_point: 2
    slice_point: 3
    slice_point: 4
    slice_point: 5
    slice_point: 6
    slice_point: 7
    slice_point: 8
    slice_point: 9
    slice_point: 10
    slice_point: 11
    slice_point: 12
    slice_point: 13
    slice_point: 14
    slice_point: 15
    slice_point: 16
    slice_point: 17
    slice_point: 18
    slice_point: 19
    slice_point: 20
    slice_point: 21
    slice_point: 22
    slice_point: 23
    slice_point: 24
    slice_point: 25
    slice_point: 26
    slice_point: 27
    slice_point: 28
    slice_point: 29
    slice_point: 30
    slice_point: 31
    slice_point: 32
    slice_point: 33
    slice_point: 34
    slice_point: 35
    slice_point: 36
    slice_point: 37
    slice_point: 38
    slice_point: 39
    slice_point: 40
    slice_point: 41
    slice_point: 42
    slice_point: 43
    slice_point: 44
    slice_point: 45
    slice_point: 46
    slice_point: 47
    slice_point: 48
    slice_point: 49
    slice_point: 50
    slice_point: 51
    slice_point: 52
    slice_point: 53
    slice_point: 54
    slice_point: 55
    slice_point: 56
    slice_point: 57
    slice_point: 58
    slice_point: 59
    slice_point: 60
    slice_point: 61
    slice_point: 62
    slice_point: 63
  }
}
layer {
  name: "slice2_14"
  type: "Slice"
  bottom: "slice1_14"
  top: "slice2_14_1"
  top: "slice2_14_2"
  top: "slice2_14_3"
  top: "slice2_14_4"
  top: "slice2_14_5"
  top: "slice2_14_6"
  top: "slice2_14_7"
  top: "slice2_14_8"
  top: "slice2_14_9"
  top: "slice2_14_10"
  top: "slice2_14_11"
  top: "slice2_14_12"
  top: "slice2_14_13"
  top: "slice2_14_14"
  top: "slice2_14_15"
  top: "slice2_14_16"
  top: "slice2_14_17"
  top: "slice2_14_18"
  top: "slice2_14_19"
  top: "slice2_14_20"
  top: "slice2_14_21"
  top: "slice2_14_22"
  top: "slice2_14_23"
  top: "slice2_14_24"
  top: "slice2_14_25"
  top: "slice2_14_26"
  top: "slice2_14_27"
  top: "slice2_14_28"
  top: "slice2_14_29"
  top: "slice2_14_30"
  top: "slice2_14_31"
  top: "slice2_14_32"
  top: "slice2_14_33"
  top: "slice2_14_34"
  top: "slice2_14_35"
  top: "slice2_14_36"
  top: "slice2_14_37"
  top: "slice2_14_38"
  top: "slice2_14_39"
  top: "slice2_14_40"
  top: "slice2_14_41"
  top: "slice2_14_42"
  top: "slice2_14_43"
  top: "slice2_14_44"
  top: "slice2_14_45"
  top: "slice2_14_46"
  top: "slice2_14_47"
  top: "slice2_14_48"
  top: "slice2_14_49"
  top: "slice2_14_50"
  top: "slice2_14_51"
  top: "slice2_14_52"
  top: "slice2_14_53"
  top: "slice2_14_54"
  top: "slice2_14_55"
  top: "slice2_14_56"
  top: "slice2_14_57"
  top: "slice2_14_58"
  top: "slice2_14_59"
  top: "slice2_14_60"
  top: "slice2_14_61"
  top: "slice2_14_62"
  top: "slice2_14_63"
  top: "slice2_14_64"
  slice_param {
    axis: 2
    slice_point: 1
    slice_point: 2
    slice_point: 3
    slice_point: 4
    slice_point: 5
    slice_point: 6
    slice_point: 7
    slice_point: 8
    slice_point: 9
    slice_point: 10
    slice_point: 11
    slice_point: 12
    slice_point: 13
    slice_point: 14
    slice_point: 15
    slice_point: 16
    slice_point: 17
    slice_point: 18
    slice_point: 19
    slice_point: 20
    slice_point: 21
    slice_point: 22
    slice_point: 23
    slice_point: 24
    slice_point: 25
    slice_point: 26
    slice_point: 27
    slice_point: 28
    slice_point: 29
    slice_point: 30
    slice_point: 31
    slice_point: 32
    slice_point: 33
    slice_point: 34
    slice_point: 35
    slice_point: 36
    slice_point: 37
    slice_point: 38
    slice_point: 39
    slice_point: 40
    slice_point: 41
    slice_point: 42
    slice_point: 43
    slice_point: 44
    slice_point: 45
    slice_point: 46
    slice_point: 47
    slice_point: 48
    slice_point: 49
    slice_point: 50
    slice_point: 51
    slice_point: 52
    slice_point: 53
    slice_point: 54
    slice_point: 55
    slice_point: 56
    slice_point: 57
    slice_point: 58
    slice_point: 59
    slice_point: 60
    slice_point: 61
    slice_point: 62
    slice_point: 63
  }
}
layer {
  name: "slice2_15"
  type: "Slice"
  bottom: "slice1_15"
  top: "slice2_15_1"
  top: "slice2_15_2"
  top: "slice2_15_3"
  top: "slice2_15_4"
  top: "slice2_15_5"
  top: "slice2_15_6"
  top: "slice2_15_7"
  top: "slice2_15_8"
  top: "slice2_15_9"
  top: "slice2_15_10"
  top: "slice2_15_11"
  top: "slice2_15_12"
  top: "slice2_15_13"
  top: "slice2_15_14"
  top: "slice2_15_15"
  top: "slice2_15_16"
  top: "slice2_15_17"
  top: "slice2_15_18"
  top: "slice2_15_19"
  top: "slice2_15_20"
  top: "slice2_15_21"
  top: "slice2_15_22"
  top: "slice2_15_23"
  top: "slice2_15_24"
  top: "slice2_15_25"
  top: "slice2_15_26"
  top: "slice2_15_27"
  top: "slice2_15_28"
  top: "slice2_15_29"
  top: "slice2_15_30"
  top: "slice2_15_31"
  top: "slice2_15_32"
  top: "slice2_15_33"
  top: "slice2_15_34"
  top: "slice2_15_35"
  top: "slice2_15_36"
  top: "slice2_15_37"
  top: "slice2_15_38"
  top: "slice2_15_39"
  top: "slice2_15_40"
  top: "slice2_15_41"
  top: "slice2_15_42"
  top: "slice2_15_43"
  top: "slice2_15_44"
  top: "slice2_15_45"
  top: "slice2_15_46"
  top: "slice2_15_47"
  top: "slice2_15_48"
  top: "slice2_15_49"
  top: "slice2_15_50"
  top: "slice2_15_51"
  top: "slice2_15_52"
  top: "slice2_15_53"
  top: "slice2_15_54"
  top: "slice2_15_55"
  top: "slice2_15_56"
  top: "slice2_15_57"
  top: "slice2_15_58"
  top: "slice2_15_59"
  top: "slice2_15_60"
  top: "slice2_15_61"
  top: "slice2_15_62"
  top: "slice2_15_63"
  top: "slice2_15_64"
  slice_param {
    axis: 2
    slice_point: 1
    slice_point: 2
    slice_point: 3
    slice_point: 4
    slice_point: 5
    slice_point: 6
    slice_point: 7
    slice_point: 8
    slice_point: 9
    slice_point: 10
    slice_point: 11
    slice_point: 12
    slice_point: 13
    slice_point: 14
    slice_point: 15
    slice_point: 16
    slice_point: 17
    slice_point: 18
    slice_point: 19
    slice_point: 20
    slice_point: 21
    slice_point: 22
    slice_point: 23
    slice_point: 24
    slice_point: 25
    slice_point: 26
    slice_point: 27
    slice_point: 28
    slice_point: 29
    slice_point: 30
    slice_point: 31
    slice_point: 32
    slice_point: 33
    slice_point: 34
    slice_point: 35
    slice_point: 36
    slice_point: 37
    slice_point: 38
    slice_point: 39
    slice_point: 40
    slice_point: 41
    slice_point: 42
    slice_point: 43
    slice_point: 44
    slice_point: 45
    slice_point: 46
    slice_point: 47
    slice_point: 48
    slice_point: 49
    slice_point: 50
    slice_point: 51
    slice_point: 52
    slice_point: 53
    slice_point: 54
    slice_point: 55
    slice_point: 56
    slice_point: 57
    slice_point: 58
    slice_point: 59
    slice_point: 60
    slice_point: 61
    slice_point: 62
    slice_point: 63
  }
}
layer {
  name: "slice2_16"
  type: "Slice"
  bottom: "slice1_16"
  top: "slice2_16_1"
  top: "slice2_16_2"
  top: "slice2_16_3"
  top: "slice2_16_4"
  top: "slice2_16_5"
  top: "slice2_16_6"
  top: "slice2_16_7"
  top: "slice2_16_8"
  top: "slice2_16_9"
  top: "slice2_16_10"
  top: "slice2_16_11"
  top: "slice2_16_12"
  top: "slice2_16_13"
  top: "slice2_16_14"
  top: "slice2_16_15"
  top: "slice2_16_16"
  top: "slice2_16_17"
  top: "slice2_16_18"
  top: "slice2_16_19"
  top: "slice2_16_20"
  top: "slice2_16_21"
  top: "slice2_16_22"
  top: "slice2_16_23"
  top: "slice2_16_24"
  top: "slice2_16_25"
  top: "slice2_16_26"
  top: "slice2_16_27"
  top: "slice2_16_28"
  top: "slice2_16_29"
  top: "slice2_16_30"
  top: "slice2_16_31"
  top: "slice2_16_32"
  top: "slice2_16_33"
  top: "slice2_16_34"
  top: "slice2_16_35"
  top: "slice2_16_36"
  top: "slice2_16_37"
  top: "slice2_16_38"
  top: "slice2_16_39"
  top: "slice2_16_40"
  top: "slice2_16_41"
  top: "slice2_16_42"
  top: "slice2_16_43"
  top: "slice2_16_44"
  top: "slice2_16_45"
  top: "slice2_16_46"
  top: "slice2_16_47"
  top: "slice2_16_48"
  top: "slice2_16_49"
  top: "slice2_16_50"
  top: "slice2_16_51"
  top: "slice2_16_52"
  top: "slice2_16_53"
  top: "slice2_16_54"
  top: "slice2_16_55"
  top: "slice2_16_56"
  top: "slice2_16_57"
  top: "slice2_16_58"
  top: "slice2_16_59"
  top: "slice2_16_60"
  top: "slice2_16_61"
  top: "slice2_16_62"
  top: "slice2_16_63"
  top: "slice2_16_64"
  slice_param {
    axis: 2
    slice_point: 1
    slice_point: 2
    slice_point: 3
    slice_point: 4
    slice_point: 5
    slice_point: 6
    slice_point: 7
    slice_point: 8
    slice_point: 9
    slice_point: 10
    slice_point: 11
    slice_point: 12
    slice_point: 13
    slice_point: 14
    slice_point: 15
    slice_point: 16
    slice_point: 17
    slice_point: 18
    slice_point: 19
    slice_point: 20
    slice_point: 21
    slice_point: 22
    slice_point: 23
    slice_point: 24
    slice_point: 25
    slice_point: 26
    slice_point: 27
    slice_point: 28
    slice_point: 29
    slice_point: 30
    slice_point: 31
    slice_point: 32
    slice_point: 33
    slice_point: 34
    slice_point: 35
    slice_point: 36
    slice_point: 37
    slice_point: 38
    slice_point: 39
    slice_point: 40
    slice_point: 41
    slice_point: 42
    slice_point: 43
    slice_point: 44
    slice_point: 45
    slice_point: 46
    slice_point: 47
    slice_point: 48
    slice_point: 49
    slice_point: 50
    slice_point: 51
    slice_point: 52
    slice_point: 53
    slice_point: 54
    slice_point: 55
    slice_point: 56
    slice_point: 57
    slice_point: 58
    slice_point: 59
    slice_point: 60
    slice_point: 61
    slice_point: 62
    slice_point: 63
  }
}
layer {
  name: "slice2_17"
  type: "Slice"
  bottom: "slice1_17"
  top: "slice2_17_1"
  top: "slice2_17_2"
  top: "slice2_17_3"
  top: "slice2_17_4"
  top: "slice2_17_5"
  top: "slice2_17_6"
  top: "slice2_17_7"
  top: "slice2_17_8"
  top: "slice2_17_9"
  top: "slice2_17_10"
  top: "slice2_17_11"
  top: "slice2_17_12"
  top: "slice2_17_13"
  top: "slice2_17_14"
  top: "slice2_17_15"
  top: "slice2_17_16"
  top: "slice2_17_17"
  top: "slice2_17_18"
  top: "slice2_17_19"
  top: "slice2_17_20"
  top: "slice2_17_21"
  top: "slice2_17_22"
  top: "slice2_17_23"
  top: "slice2_17_24"
  top: "slice2_17_25"
  top: "slice2_17_26"
  top: "slice2_17_27"
  top: "slice2_17_28"
  top: "slice2_17_29"
  top: "slice2_17_30"
  top: "slice2_17_31"
  top: "slice2_17_32"
  top: "slice2_17_33"
  top: "slice2_17_34"
  top: "slice2_17_35"
  top: "slice2_17_36"
  top: "slice2_17_37"
  top: "slice2_17_38"
  top: "slice2_17_39"
  top: "slice2_17_40"
  top: "slice2_17_41"
  top: "slice2_17_42"
  top: "slice2_17_43"
  top: "slice2_17_44"
  top: "slice2_17_45"
  top: "slice2_17_46"
  top: "slice2_17_47"
  top: "slice2_17_48"
  top: "slice2_17_49"
  top: "slice2_17_50"
  top: "slice2_17_51"
  top: "slice2_17_52"
  top: "slice2_17_53"
  top: "slice2_17_54"
  top: "slice2_17_55"
  top: "slice2_17_56"
  top: "slice2_17_57"
  top: "slice2_17_58"
  top: "slice2_17_59"
  top: "slice2_17_60"
  top: "slice2_17_61"
  top: "slice2_17_62"
  top: "slice2_17_63"
  top: "slice2_17_64"
  slice_param {
    axis: 2
    slice_point: 1
    slice_point: 2
    slice_point: 3
    slice_point: 4
    slice_point: 5
    slice_point: 6
    slice_point: 7
    slice_point: 8
    slice_point: 9
    slice_point: 10
    slice_point: 11
    slice_point: 12
    slice_point: 13
    slice_point: 14
    slice_point: 15
    slice_point: 16
    slice_point: 17
    slice_point: 18
    slice_point: 19
    slice_point: 20
    slice_point: 21
    slice_point: 22
    slice_point: 23
    slice_point: 24
    slice_point: 25
    slice_point: 26
    slice_point: 27
    slice_point: 28
    slice_point: 29
    slice_point: 30
    slice_point: 31
    slice_point: 32
    slice_point: 33
    slice_point: 34
    slice_point: 35
    slice_point: 36
    slice_point: 37
    slice_point: 38
    slice_point: 39
    slice_point: 40
    slice_point: 41
    slice_point: 42
    slice_point: 43
    slice_point: 44
    slice_point: 45
    slice_point: 46
    slice_point: 47
    slice_point: 48
    slice_point: 49
    slice_point: 50
    slice_point: 51
    slice_point: 52
    slice_point: 53
    slice_point: 54
    slice_point: 55
    slice_point: 56
    slice_point: 57
    slice_point: 58
    slice_point: 59
    slice_point: 60
    slice_point: 61
    slice_point: 62
    slice_point: 63
  }
}
layer {
  name: "slice2_18"
  type: "Slice"
  bottom: "slice1_18"
  top: "slice2_18_1"
  top: "slice2_18_2"
  top: "slice2_18_3"
  top: "slice2_18_4"
  top: "slice2_18_5"
  top: "slice2_18_6"
  top: "slice2_18_7"
  top: "slice2_18_8"
  top: "slice2_18_9"
  top: "slice2_18_10"
  top: "slice2_18_11"
  top: "slice2_18_12"
  top: "slice2_18_13"
  top: "slice2_18_14"
  top: "slice2_18_15"
  top: "slice2_18_16"
  top: "slice2_18_17"
  top: "slice2_18_18"
  top: "slice2_18_19"
  top: "slice2_18_20"
  top: "slice2_18_21"
  top: "slice2_18_22"
  top: "slice2_18_23"
  top: "slice2_18_24"
  top: "slice2_18_25"
  top: "slice2_18_26"
  top: "slice2_18_27"
  top: "slice2_18_28"
  top: "slice2_18_29"
  top: "slice2_18_30"
  top: "slice2_18_31"
  top: "slice2_18_32"
  top: "slice2_18_33"
  top: "slice2_18_34"
  top: "slice2_18_35"
  top: "slice2_18_36"
  top: "slice2_18_37"
  top: "slice2_18_38"
  top: "slice2_18_39"
  top: "slice2_18_40"
  top: "slice2_18_41"
  top: "slice2_18_42"
  top: "slice2_18_43"
  top: "slice2_18_44"
  top: "slice2_18_45"
  top: "slice2_18_46"
  top: "slice2_18_47"
  top: "slice2_18_48"
  top: "slice2_18_49"
  top: "slice2_18_50"
  top: "slice2_18_51"
  top: "slice2_18_52"
  top: "slice2_18_53"
  top: "slice2_18_54"
  top: "slice2_18_55"
  top: "slice2_18_56"
  top: "slice2_18_57"
  top: "slice2_18_58"
  top: "slice2_18_59"
  top: "slice2_18_60"
  top: "slice2_18_61"
  top: "slice2_18_62"
  top: "slice2_18_63"
  top: "slice2_18_64"
  slice_param {
    axis: 2
    slice_point: 1
    slice_point: 2
    slice_point: 3
    slice_point: 4
    slice_point: 5
    slice_point: 6
    slice_point: 7
    slice_point: 8
    slice_point: 9
    slice_point: 10
    slice_point: 11
    slice_point: 12
    slice_point: 13
    slice_point: 14
    slice_point: 15
    slice_point: 16
    slice_point: 17
    slice_point: 18
    slice_point: 19
    slice_point: 20
    slice_point: 21
    slice_point: 22
    slice_point: 23
    slice_point: 24
    slice_point: 25
    slice_point: 26
    slice_point: 27
    slice_point: 28
    slice_point: 29
    slice_point: 30
    slice_point: 31
    slice_point: 32
    slice_point: 33
    slice_point: 34
    slice_point: 35
    slice_point: 36
    slice_point: 37
    slice_point: 38
    slice_point: 39
    slice_point: 40
    slice_point: 41
    slice_point: 42
    slice_point: 43
    slice_point: 44
    slice_point: 45
    slice_point: 46
    slice_point: 47
    slice_point: 48
    slice_point: 49
    slice_point: 50
    slice_point: 51
    slice_point: 52
    slice_point: 53
    slice_point: 54
    slice_point: 55
    slice_point: 56
    slice_point: 57
    slice_point: 58
    slice_point: 59
    slice_point: 60
    slice_point: 61
    slice_point: 62
    slice_point: 63
  }
}
layer {
  name: "slice2_19"
  type: "Slice"
  bottom: "slice1_19"
  top: "slice2_19_1"
  top: "slice2_19_2"
  top: "slice2_19_3"
  top: "slice2_19_4"
  top: "slice2_19_5"
  top: "slice2_19_6"
  top: "slice2_19_7"
  top: "slice2_19_8"
  top: "slice2_19_9"
  top: "slice2_19_10"
  top: "slice2_19_11"
  top: "slice2_19_12"
  top: "slice2_19_13"
  top: "slice2_19_14"
  top: "slice2_19_15"
  top: "slice2_19_16"
  top: "slice2_19_17"
  top: "slice2_19_18"
  top: "slice2_19_19"
  top: "slice2_19_20"
  top: "slice2_19_21"
  top: "slice2_19_22"
  top: "slice2_19_23"
  top: "slice2_19_24"
  top: "slice2_19_25"
  top: "slice2_19_26"
  top: "slice2_19_27"
  top: "slice2_19_28"
  top: "slice2_19_29"
  top: "slice2_19_30"
  top: "slice2_19_31"
  top: "slice2_19_32"
  top: "slice2_19_33"
  top: "slice2_19_34"
  top: "slice2_19_35"
  top: "slice2_19_36"
  top: "slice2_19_37"
  top: "slice2_19_38"
  top: "slice2_19_39"
  top: "slice2_19_40"
  top: "slice2_19_41"
  top: "slice2_19_42"
  top: "slice2_19_43"
  top: "slice2_19_44"
  top: "slice2_19_45"
  top: "slice2_19_46"
  top: "slice2_19_47"
  top: "slice2_19_48"
  top: "slice2_19_49"
  top: "slice2_19_50"
  top: "slice2_19_51"
  top: "slice2_19_52"
  top: "slice2_19_53"
  top: "slice2_19_54"
  top: "slice2_19_55"
  top: "slice2_19_56"
  top: "slice2_19_57"
  top: "slice2_19_58"
  top: "slice2_19_59"
  top: "slice2_19_60"
  top: "slice2_19_61"
  top: "slice2_19_62"
  top: "slice2_19_63"
  top: "slice2_19_64"
  slice_param {
    axis: 2
    slice_point: 1
    slice_point: 2
    slice_point: 3
    slice_point: 4
    slice_point: 5
    slice_point: 6
    slice_point: 7
    slice_point: 8
    slice_point: 9
    slice_point: 10
    slice_point: 11
    slice_point: 12
    slice_point: 13
    slice_point: 14
    slice_point: 15
    slice_point: 16
    slice_point: 17
    slice_point: 18
    slice_point: 19
    slice_point: 20
    slice_point: 21
    slice_point: 22
    slice_point: 23
    slice_point: 24
    slice_point: 25
    slice_point: 26
    slice_point: 27
    slice_point: 28
    slice_point: 29
    slice_point: 30
    slice_point: 31
    slice_point: 32
    slice_point: 33
    slice_point: 34
    slice_point: 35
    slice_point: 36
    slice_point: 37
    slice_point: 38
    slice_point: 39
    slice_point: 40
    slice_point: 41
    slice_point: 42
    slice_point: 43
    slice_point: 44
    slice_point: 45
    slice_point: 46
    slice_point: 47
    slice_point: 48
    slice_point: 49
    slice_point: 50
    slice_point: 51
    slice_point: 52
    slice_point: 53
    slice_point: 54
    slice_point: 55
    slice_point: 56
    slice_point: 57
    slice_point: 58
    slice_point: 59
    slice_point: 60
    slice_point: 61
    slice_point: 62
    slice_point: 63
  }
}
layer {
  name: "slice2_20"
  type: "Slice"
  bottom: "slice1_20"
  top: "slice2_20_1"
  top: "slice2_20_2"
  top: "slice2_20_3"
  top: "slice2_20_4"
  top: "slice2_20_5"
  top: "slice2_20_6"
  top: "slice2_20_7"
  top: "slice2_20_8"
  top: "slice2_20_9"
  top: "slice2_20_10"
  top: "slice2_20_11"
  top: "slice2_20_12"
  top: "slice2_20_13"
  top: "slice2_20_14"
  top: "slice2_20_15"
  top: "slice2_20_16"
  top: "slice2_20_17"
  top: "slice2_20_18"
  top: "slice2_20_19"
  top: "slice2_20_20"
  top: "slice2_20_21"
  top: "slice2_20_22"
  top: "slice2_20_23"
  top: "slice2_20_24"
  top: "slice2_20_25"
  top: "slice2_20_26"
  top: "slice2_20_27"
  top: "slice2_20_28"
  top: "slice2_20_29"
  top: "slice2_20_30"
  top: "slice2_20_31"
  top: "slice2_20_32"
  top: "slice2_20_33"
  top: "slice2_20_34"
  top: "slice2_20_35"
  top: "slice2_20_36"
  top: "slice2_20_37"
  top: "slice2_20_38"
  top: "slice2_20_39"
  top: "slice2_20_40"
  top: "slice2_20_41"
  top: "slice2_20_42"
  top: "slice2_20_43"
  top: "slice2_20_44"
  top: "slice2_20_45"
  top: "slice2_20_46"
  top: "slice2_20_47"
  top: "slice2_20_48"
  top: "slice2_20_49"
  top: "slice2_20_50"
  top: "slice2_20_51"
  top: "slice2_20_52"
  top: "slice2_20_53"
  top: "slice2_20_54"
  top: "slice2_20_55"
  top: "slice2_20_56"
  top: "slice2_20_57"
  top: "slice2_20_58"
  top: "slice2_20_59"
  top: "slice2_20_60"
  top: "slice2_20_61"
  top: "slice2_20_62"
  top: "slice2_20_63"
  top: "slice2_20_64"
  slice_param {
    axis: 2
    slice_point: 1
    slice_point: 2
    slice_point: 3
    slice_point: 4
    slice_point: 5
    slice_point: 6
    slice_point: 7
    slice_point: 8
    slice_point: 9
    slice_point: 10
    slice_point: 11
    slice_point: 12
    slice_point: 13
    slice_point: 14
    slice_point: 15
    slice_point: 16
    slice_point: 17
    slice_point: 18
    slice_point: 19
    slice_point: 20
    slice_point: 21
    slice_point: 22
    slice_point: 23
    slice_point: 24
    slice_point: 25
    slice_point: 26
    slice_point: 27
    slice_point: 28
    slice_point: 29
    slice_point: 30
    slice_point: 31
    slice_point: 32
    slice_point: 33
    slice_point: 34
    slice_point: 35
    slice_point: 36
    slice_point: 37
    slice_point: 38
    slice_point: 39
    slice_point: 40
    slice_point: 41
    slice_point: 42
    slice_point: 43
    slice_point: 44
    slice_point: 45
    slice_point: 46
    slice_point: 47
    slice_point: 48
    slice_point: 49
    slice_point: 50
    slice_point: 51
    slice_point: 52
    slice_point: 53
    slice_point: 54
    slice_point: 55
    slice_point: 56
    slice_point: 57
    slice_point: 58
    slice_point: 59
    slice_point: 60
    slice_point: 61
    slice_point: 62
    slice_point: 63
  }
}
layer {
  name: "slice2_21"
  type: "Slice"
  bottom: "slice1_21"
  top: "slice2_21_1"
  top: "slice2_21_2"
  top: "slice2_21_3"
  top: "slice2_21_4"
  top: "slice2_21_5"
  top: "slice2_21_6"
  top: "slice2_21_7"
  top: "slice2_21_8"
  top: "slice2_21_9"
  top: "slice2_21_10"
  top: "slice2_21_11"
  top: "slice2_21_12"
  top: "slice2_21_13"
  top: "slice2_21_14"
  top: "slice2_21_15"
  top: "slice2_21_16"
  top: "slice2_21_17"
  top: "slice2_21_18"
  top: "slice2_21_19"
  top: "slice2_21_20"
  top: "slice2_21_21"
  top: "slice2_21_22"
  top: "slice2_21_23"
  top: "slice2_21_24"
  top: "slice2_21_25"
  top: "slice2_21_26"
  top: "slice2_21_27"
  top: "slice2_21_28"
  top: "slice2_21_29"
  top: "slice2_21_30"
  top: "slice2_21_31"
  top: "slice2_21_32"
  top: "slice2_21_33"
  top: "slice2_21_34"
  top: "slice2_21_35"
  top: "slice2_21_36"
  top: "slice2_21_37"
  top: "slice2_21_38"
  top: "slice2_21_39"
  top: "slice2_21_40"
  top: "slice2_21_41"
  top: "slice2_21_42"
  top: "slice2_21_43"
  top: "slice2_21_44"
  top: "slice2_21_45"
  top: "slice2_21_46"
  top: "slice2_21_47"
  top: "slice2_21_48"
  top: "slice2_21_49"
  top: "slice2_21_50"
  top: "slice2_21_51"
  top: "slice2_21_52"
  top: "slice2_21_53"
  top: "slice2_21_54"
  top: "slice2_21_55"
  top: "slice2_21_56"
  top: "slice2_21_57"
  top: "slice2_21_58"
  top: "slice2_21_59"
  top: "slice2_21_60"
  top: "slice2_21_61"
  top: "slice2_21_62"
  top: "slice2_21_63"
  top: "slice2_21_64"
  slice_param {
    axis: 2
    slice_point: 1
    slice_point: 2
    slice_point: 3
    slice_point: 4
    slice_point: 5
    slice_point: 6
    slice_point: 7
    slice_point: 8
    slice_point: 9
    slice_point: 10
    slice_point: 11
    slice_point: 12
    slice_point: 13
    slice_point: 14
    slice_point: 15
    slice_point: 16
    slice_point: 17
    slice_point: 18
    slice_point: 19
    slice_point: 20
    slice_point: 21
    slice_point: 22
    slice_point: 23
    slice_point: 24
    slice_point: 25
    slice_point: 26
    slice_point: 27
    slice_point: 28
    slice_point: 29
    slice_point: 30
    slice_point: 31
    slice_point: 32
    slice_point: 33
    slice_point: 34
    slice_point: 35
    slice_point: 36
    slice_point: 37
    slice_point: 38
    slice_point: 39
    slice_point: 40
    slice_point: 41
    slice_point: 42
    slice_point: 43
    slice_point: 44
    slice_point: 45
    slice_point: 46
    slice_point: 47
    slice_point: 48
    slice_point: 49
    slice_point: 50
    slice_point: 51
    slice_point: 52
    slice_point: 53
    slice_point: 54
    slice_point: 55
    slice_point: 56
    slice_point: 57
    slice_point: 58
    slice_point: 59
    slice_point: 60
    slice_point: 61
    slice_point: 62
    slice_point: 63
  }
}
layer {
  name: "slice2_22"
  type: "Slice"
  bottom: "slice1_22"
  top: "slice2_22_1"
  top: "slice2_22_2"
  top: "slice2_22_3"
  top: "slice2_22_4"
  top: "slice2_22_5"
  top: "slice2_22_6"
  top: "slice2_22_7"
  top: "slice2_22_8"
  top: "slice2_22_9"
  top: "slice2_22_10"
  top: "slice2_22_11"
  top: "slice2_22_12"
  top: "slice2_22_13"
  top: "slice2_22_14"
  top: "slice2_22_15"
  top: "slice2_22_16"
  top: "slice2_22_17"
  top: "slice2_22_18"
  top: "slice2_22_19"
  top: "slice2_22_20"
  top: "slice2_22_21"
  top: "slice2_22_22"
  top: "slice2_22_23"
  top: "slice2_22_24"
  top: "slice2_22_25"
  top: "slice2_22_26"
  top: "slice2_22_27"
  top: "slice2_22_28"
  top: "slice2_22_29"
  top: "slice2_22_30"
  top: "slice2_22_31"
  top: "slice2_22_32"
  top: "slice2_22_33"
  top: "slice2_22_34"
  top: "slice2_22_35"
  top: "slice2_22_36"
  top: "slice2_22_37"
  top: "slice2_22_38"
  top: "slice2_22_39"
  top: "slice2_22_40"
  top: "slice2_22_41"
  top: "slice2_22_42"
  top: "slice2_22_43"
  top: "slice2_22_44"
  top: "slice2_22_45"
  top: "slice2_22_46"
  top: "slice2_22_47"
  top: "slice2_22_48"
  top: "slice2_22_49"
  top: "slice2_22_50"
  top: "slice2_22_51"
  top: "slice2_22_52"
  top: "slice2_22_53"
  top: "slice2_22_54"
  top: "slice2_22_55"
  top: "slice2_22_56"
  top: "slice2_22_57"
  top: "slice2_22_58"
  top: "slice2_22_59"
  top: "slice2_22_60"
  top: "slice2_22_61"
  top: "slice2_22_62"
  top: "slice2_22_63"
  top: "slice2_22_64"
  slice_param {
    axis: 2
    slice_point: 1
    slice_point: 2
    slice_point: 3
    slice_point: 4
    slice_point: 5
    slice_point: 6
    slice_point: 7
    slice_point: 8
    slice_point: 9
    slice_point: 10
    slice_point: 11
    slice_point: 12
    slice_point: 13
    slice_point: 14
    slice_point: 15
    slice_point: 16
    slice_point: 17
    slice_point: 18
    slice_point: 19
    slice_point: 20
    slice_point: 21
    slice_point: 22
    slice_point: 23
    slice_point: 24
    slice_point: 25
    slice_point: 26
    slice_point: 27
    slice_point: 28
    slice_point: 29
    slice_point: 30
    slice_point: 31
    slice_point: 32
    slice_point: 33
    slice_point: 34
    slice_point: 35
    slice_point: 36
    slice_point: 37
    slice_point: 38
    slice_point: 39
    slice_point: 40
    slice_point: 41
    slice_point: 42
    slice_point: 43
    slice_point: 44
    slice_point: 45
    slice_point: 46
    slice_point: 47
    slice_point: 48
    slice_point: 49
    slice_point: 50
    slice_point: 51
    slice_point: 52
    slice_point: 53
    slice_point: 54
    slice_point: 55
    slice_point: 56
    slice_point: 57
    slice_point: 58
    slice_point: 59
    slice_point: 60
    slice_point: 61
    slice_point: 62
    slice_point: 63
  }
}
layer {
  name: "slice2_23"
  type: "Slice"
  bottom: "slice1_23"
  top: "slice2_23_1"
  top: "slice2_23_2"
  top: "slice2_23_3"
  top: "slice2_23_4"
  top: "slice2_23_5"
  top: "slice2_23_6"
  top: "slice2_23_7"
  top: "slice2_23_8"
  top: "slice2_23_9"
  top: "slice2_23_10"
  top: "slice2_23_11"
  top: "slice2_23_12"
  top: "slice2_23_13"
  top: "slice2_23_14"
  top: "slice2_23_15"
  top: "slice2_23_16"
  top: "slice2_23_17"
  top: "slice2_23_18"
  top: "slice2_23_19"
  top: "slice2_23_20"
  top: "slice2_23_21"
  top: "slice2_23_22"
  top: "slice2_23_23"
  top: "slice2_23_24"
  top: "slice2_23_25"
  top: "slice2_23_26"
  top: "slice2_23_27"
  top: "slice2_23_28"
  top: "slice2_23_29"
  top: "slice2_23_30"
  top: "slice2_23_31"
  top: "slice2_23_32"
  top: "slice2_23_33"
  top: "slice2_23_34"
  top: "slice2_23_35"
  top: "slice2_23_36"
  top: "slice2_23_37"
  top: "slice2_23_38"
  top: "slice2_23_39"
  top: "slice2_23_40"
  top: "slice2_23_41"
  top: "slice2_23_42"
  top: "slice2_23_43"
  top: "slice2_23_44"
  top: "slice2_23_45"
  top: "slice2_23_46"
  top: "slice2_23_47"
  top: "slice2_23_48"
  top: "slice2_23_49"
  top: "slice2_23_50"
  top: "slice2_23_51"
  top: "slice2_23_52"
  top: "slice2_23_53"
  top: "slice2_23_54"
  top: "slice2_23_55"
  top: "slice2_23_56"
  top: "slice2_23_57"
  top: "slice2_23_58"
  top: "slice2_23_59"
  top: "slice2_23_60"
  top: "slice2_23_61"
  top: "slice2_23_62"
  top: "slice2_23_63"
  top: "slice2_23_64"
  slice_param {
    axis: 2
    slice_point: 1
    slice_point: 2
    slice_point: 3
    slice_point: 4
    slice_point: 5
    slice_point: 6
    slice_point: 7
    slice_point: 8
    slice_point: 9
    slice_point: 10
    slice_point: 11
    slice_point: 12
    slice_point: 13
    slice_point: 14
    slice_point: 15
    slice_point: 16
    slice_point: 17
    slice_point: 18
    slice_point: 19
    slice_point: 20
    slice_point: 21
    slice_point: 22
    slice_point: 23
    slice_point: 24
    slice_point: 25
    slice_point: 26
    slice_point: 27
    slice_point: 28
    slice_point: 29
    slice_point: 30
    slice_point: 31
    slice_point: 32
    slice_point: 33
    slice_point: 34
    slice_point: 35
    slice_point: 36
    slice_point: 37
    slice_point: 38
    slice_point: 39
    slice_point: 40
    slice_point: 41
    slice_point: 42
    slice_point: 43
    slice_point: 44
    slice_point: 45
    slice_point: 46
    slice_point: 47
    slice_point: 48
    slice_point: 49
    slice_point: 50
    slice_point: 51
    slice_point: 52
    slice_point: 53
    slice_point: 54
    slice_point: 55
    slice_point: 56
    slice_point: 57
    slice_point: 58
    slice_point: 59
    slice_point: 60
    slice_point: 61
    slice_point: 62
    slice_point: 63
  }
}
layer {
  name: "slice2_24"
  type: "Slice"
  bottom: "slice1_24"
  top: "slice2_24_1"
  top: "slice2_24_2"
  top: "slice2_24_3"
  top: "slice2_24_4"
  top: "slice2_24_5"
  top: "slice2_24_6"
  top: "slice2_24_7"
  top: "slice2_24_8"
  top: "slice2_24_9"
  top: "slice2_24_10"
  top: "slice2_24_11"
  top: "slice2_24_12"
  top: "slice2_24_13"
  top: "slice2_24_14"
  top: "slice2_24_15"
  top: "slice2_24_16"
  top: "slice2_24_17"
  top: "slice2_24_18"
  top: "slice2_24_19"
  top: "slice2_24_20"
  top: "slice2_24_21"
  top: "slice2_24_22"
  top: "slice2_24_23"
  top: "slice2_24_24"
  top: "slice2_24_25"
  top: "slice2_24_26"
  top: "slice2_24_27"
  top: "slice2_24_28"
  top: "slice2_24_29"
  top: "slice2_24_30"
  top: "slice2_24_31"
  top: "slice2_24_32"
  top: "slice2_24_33"
  top: "slice2_24_34"
  top: "slice2_24_35"
  top: "slice2_24_36"
  top: "slice2_24_37"
  top: "slice2_24_38"
  top: "slice2_24_39"
  top: "slice2_24_40"
  top: "slice2_24_41"
  top: "slice2_24_42"
  top: "slice2_24_43"
  top: "slice2_24_44"
  top: "slice2_24_45"
  top: "slice2_24_46"
  top: "slice2_24_47"
  top: "slice2_24_48"
  top: "slice2_24_49"
  top: "slice2_24_50"
  top: "slice2_24_51"
  top: "slice2_24_52"
  top: "slice2_24_53"
  top: "slice2_24_54"
  top: "slice2_24_55"
  top: "slice2_24_56"
  top: "slice2_24_57"
  top: "slice2_24_58"
  top: "slice2_24_59"
  top: "slice2_24_60"
  top: "slice2_24_61"
  top: "slice2_24_62"
  top: "slice2_24_63"
  top: "slice2_24_64"
  slice_param {
    axis: 2
    slice_point: 1
    slice_point: 2
    slice_point: 3
    slice_point: 4
    slice_point: 5
    slice_point: 6
    slice_point: 7
    slice_point: 8
    slice_point: 9
    slice_point: 10
    slice_point: 11
    slice_point: 12
    slice_point: 13
    slice_point: 14
    slice_point: 15
    slice_point: 16
    slice_point: 17
    slice_point: 18
    slice_point: 19
    slice_point: 20
    slice_point: 21
    slice_point: 22
    slice_point: 23
    slice_point: 24
    slice_point: 25
    slice_point: 26
    slice_point: 27
    slice_point: 28
    slice_point: 29
    slice_point: 30
    slice_point: 31
    slice_point: 32
    slice_point: 33
    slice_point: 34
    slice_point: 35
    slice_point: 36
    slice_point: 37
    slice_point: 38
    slice_point: 39
    slice_point: 40
    slice_point: 41
    slice_point: 42
    slice_point: 43
    slice_point: 44
    slice_point: 45
    slice_point: 46
    slice_point: 47
    slice_point: 48
    slice_point: 49
    slice_point: 50
    slice_point: 51
    slice_point: 52
    slice_point: 53
    slice_point: 54
    slice_point: 55
    slice_point: 56
    slice_point: 57
    slice_point: 58
    slice_point: 59
    slice_point: 60
    slice_point: 61
    slice_point: 62
    slice_point: 63
  }
}
layer {
  name: "slice2_25"
  type: "Slice"
  bottom: "slice1_25"
  top: "slice2_25_1"
  top: "slice2_25_2"
  top: "slice2_25_3"
  top: "slice2_25_4"
  top: "slice2_25_5"
  top: "slice2_25_6"
  top: "slice2_25_7"
  top: "slice2_25_8"
  top: "slice2_25_9"
  top: "slice2_25_10"
  top: "slice2_25_11"
  top: "slice2_25_12"
  top: "slice2_25_13"
  top: "slice2_25_14"
  top: "slice2_25_15"
  top: "slice2_25_16"
  top: "slice2_25_17"
  top: "slice2_25_18"
  top: "slice2_25_19"
  top: "slice2_25_20"
  top: "slice2_25_21"
  top: "slice2_25_22"
  top: "slice2_25_23"
  top: "slice2_25_24"
  top: "slice2_25_25"
  top: "slice2_25_26"
  top: "slice2_25_27"
  top: "slice2_25_28"
  top: "slice2_25_29"
  top: "slice2_25_30"
  top: "slice2_25_31"
  top: "slice2_25_32"
  top: "slice2_25_33"
  top: "slice2_25_34"
  top: "slice2_25_35"
  top: "slice2_25_36"
  top: "slice2_25_37"
  top: "slice2_25_38"
  top: "slice2_25_39"
  top: "slice2_25_40"
  top: "slice2_25_41"
  top: "slice2_25_42"
  top: "slice2_25_43"
  top: "slice2_25_44"
  top: "slice2_25_45"
  top: "slice2_25_46"
  top: "slice2_25_47"
  top: "slice2_25_48"
  top: "slice2_25_49"
  top: "slice2_25_50"
  top: "slice2_25_51"
  top: "slice2_25_52"
  top: "slice2_25_53"
  top: "slice2_25_54"
  top: "slice2_25_55"
  top: "slice2_25_56"
  top: "slice2_25_57"
  top: "slice2_25_58"
  top: "slice2_25_59"
  top: "slice2_25_60"
  top: "slice2_25_61"
  top: "slice2_25_62"
  top: "slice2_25_63"
  top: "slice2_25_64"
  slice_param {
    axis: 2
    slice_point: 1
    slice_point: 2
    slice_point: 3
    slice_point: 4
    slice_point: 5
    slice_point: 6
    slice_point: 7
    slice_point: 8
    slice_point: 9
    slice_point: 10
    slice_point: 11
    slice_point: 12
    slice_point: 13
    slice_point: 14
    slice_point: 15
    slice_point: 16
    slice_point: 17
    slice_point: 18
    slice_point: 19
    slice_point: 20
    slice_point: 21
    slice_point: 22
    slice_point: 23
    slice_point: 24
    slice_point: 25
    slice_point: 26
    slice_point: 27
    slice_point: 28
    slice_point: 29
    slice_point: 30
    slice_point: 31
    slice_point: 32
    slice_point: 33
    slice_point: 34
    slice_point: 35
    slice_point: 36
    slice_point: 37
    slice_point: 38
    slice_point: 39
    slice_point: 40
    slice_point: 41
    slice_point: 42
    slice_point: 43
    slice_point: 44
    slice_point: 45
    slice_point: 46
    slice_point: 47
    slice_point: 48
    slice_point: 49
    slice_point: 50
    slice_point: 51
    slice_point: 52
    slice_point: 53
    slice_point: 54
    slice_point: 55
    slice_point: 56
    slice_point: 57
    slice_point: 58
    slice_point: 59
    slice_point: 60
    slice_point: 61
    slice_point: 62
    slice_point: 63
  }
}
layer {
  name: "slice2_26"
  type: "Slice"
  bottom: "slice1_26"
  top: "slice2_26_1"
  top: "slice2_26_2"
  top: "slice2_26_3"
  top: "slice2_26_4"
  top: "slice2_26_5"
  top: "slice2_26_6"
  top: "slice2_26_7"
  top: "slice2_26_8"
  top: "slice2_26_9"
  top: "slice2_26_10"
  top: "slice2_26_11"
  top: "slice2_26_12"
  top: "slice2_26_13"
  top: "slice2_26_14"
  top: "slice2_26_15"
  top: "slice2_26_16"
  top: "slice2_26_17"
  top: "slice2_26_18"
  top: "slice2_26_19"
  top: "slice2_26_20"
  top: "slice2_26_21"
  top: "slice2_26_22"
  top: "slice2_26_23"
  top: "slice2_26_24"
  top: "slice2_26_25"
  top: "slice2_26_26"
  top: "slice2_26_27"
  top: "slice2_26_28"
  top: "slice2_26_29"
  top: "slice2_26_30"
  top: "slice2_26_31"
  top: "slice2_26_32"
  top: "slice2_26_33"
  top: "slice2_26_34"
  top: "slice2_26_35"
  top: "slice2_26_36"
  top: "slice2_26_37"
  top: "slice2_26_38"
  top: "slice2_26_39"
  top: "slice2_26_40"
  top: "slice2_26_41"
  top: "slice2_26_42"
  top: "slice2_26_43"
  top: "slice2_26_44"
  top: "slice2_26_45"
  top: "slice2_26_46"
  top: "slice2_26_47"
  top: "slice2_26_48"
  top: "slice2_26_49"
  top: "slice2_26_50"
  top: "slice2_26_51"
  top: "slice2_26_52"
  top: "slice2_26_53"
  top: "slice2_26_54"
  top: "slice2_26_55"
  top: "slice2_26_56"
  top: "slice2_26_57"
  top: "slice2_26_58"
  top: "slice2_26_59"
  top: "slice2_26_60"
  top: "slice2_26_61"
  top: "slice2_26_62"
  top: "slice2_26_63"
  top: "slice2_26_64"
  slice_param {
    axis: 2
    slice_point: 1
    slice_point: 2
    slice_point: 3
    slice_point: 4
    slice_point: 5
    slice_point: 6
    slice_point: 7
    slice_point: 8
    slice_point: 9
    slice_point: 10
    slice_point: 11
    slice_point: 12
    slice_point: 13
    slice_point: 14
    slice_point: 15
    slice_point: 16
    slice_point: 17
    slice_point: 18
    slice_point: 19
    slice_point: 20
    slice_point: 21
    slice_point: 22
    slice_point: 23
    slice_point: 24
    slice_point: 25
    slice_point: 26
    slice_point: 27
    slice_point: 28
    slice_point: 29
    slice_point: 30
    slice_point: 31
    slice_point: 32
    slice_point: 33
    slice_point: 34
    slice_point: 35
    slice_point: 36
    slice_point: 37
    slice_point: 38
    slice_point: 39
    slice_point: 40
    slice_point: 41
    slice_point: 42
    slice_point: 43
    slice_point: 44
    slice_point: 45
    slice_point: 46
    slice_point: 47
    slice_point: 48
    slice_point: 49
    slice_point: 50
    slice_point: 51
    slice_point: 52
    slice_point: 53
    slice_point: 54
    slice_point: 55
    slice_point: 56
    slice_point: 57
    slice_point: 58
    slice_point: 59
    slice_point: 60
    slice_point: 61
    slice_point: 62
    slice_point: 63
  }
}
layer {
  name: "slice2_27"
  type: "Slice"
  bottom: "slice1_27"
  top: "slice2_27_1"
  top: "slice2_27_2"
  top: "slice2_27_3"
  top: "slice2_27_4"
  top: "slice2_27_5"
  top: "slice2_27_6"
  top: "slice2_27_7"
  top: "slice2_27_8"
  top: "slice2_27_9"
  top: "slice2_27_10"
  top: "slice2_27_11"
  top: "slice2_27_12"
  top: "slice2_27_13"
  top: "slice2_27_14"
  top: "slice2_27_15"
  top: "slice2_27_16"
  top: "slice2_27_17"
  top: "slice2_27_18"
  top: "slice2_27_19"
  top: "slice2_27_20"
  top: "slice2_27_21"
  top: "slice2_27_22"
  top: "slice2_27_23"
  top: "slice2_27_24"
  top: "slice2_27_25"
  top: "slice2_27_26"
  top: "slice2_27_27"
  top: "slice2_27_28"
  top: "slice2_27_29"
  top: "slice2_27_30"
  top: "slice2_27_31"
  top: "slice2_27_32"
  top: "slice2_27_33"
  top: "slice2_27_34"
  top: "slice2_27_35"
  top: "slice2_27_36"
  top: "slice2_27_37"
  top: "slice2_27_38"
  top: "slice2_27_39"
  top: "slice2_27_40"
  top: "slice2_27_41"
  top: "slice2_27_42"
  top: "slice2_27_43"
  top: "slice2_27_44"
  top: "slice2_27_45"
  top: "slice2_27_46"
  top: "slice2_27_47"
  top: "slice2_27_48"
  top: "slice2_27_49"
  top: "slice2_27_50"
  top: "slice2_27_51"
  top: "slice2_27_52"
  top: "slice2_27_53"
  top: "slice2_27_54"
  top: "slice2_27_55"
  top: "slice2_27_56"
  top: "slice2_27_57"
  top: "slice2_27_58"
  top: "slice2_27_59"
  top: "slice2_27_60"
  top: "slice2_27_61"
  top: "slice2_27_62"
  top: "slice2_27_63"
  top: "slice2_27_64"
  slice_param {
    axis: 2
    slice_point: 1
    slice_point: 2
    slice_point: 3
    slice_point: 4
    slice_point: 5
    slice_point: 6
    slice_point: 7
    slice_point: 8
    slice_point: 9
    slice_point: 10
    slice_point: 11
    slice_point: 12
    slice_point: 13
    slice_point: 14
    slice_point: 15
    slice_point: 16
    slice_point: 17
    slice_point: 18
    slice_point: 19
    slice_point: 20
    slice_point: 21
    slice_point: 22
    slice_point: 23
    slice_point: 24
    slice_point: 25
    slice_point: 26
    slice_point: 27
    slice_point: 28
    slice_point: 29
    slice_point: 30
    slice_point: 31
    slice_point: 32
    slice_point: 33
    slice_point: 34
    slice_point: 35
    slice_point: 36
    slice_point: 37
    slice_point: 38
    slice_point: 39
    slice_point: 40
    slice_point: 41
    slice_point: 42
    slice_point: 43
    slice_point: 44
    slice_point: 45
    slice_point: 46
    slice_point: 47
    slice_point: 48
    slice_point: 49
    slice_point: 50
    slice_point: 51
    slice_point: 52
    slice_point: 53
    slice_point: 54
    slice_point: 55
    slice_point: 56
    slice_point: 57
    slice_point: 58
    slice_point: 59
    slice_point: 60
    slice_point: 61
    slice_point: 62
    slice_point: 63
  }
}
layer {
  name: "slice2_28"
  type: "Slice"
  bottom: "slice1_28"
  top: "slice2_28_1"
  top: "slice2_28_2"
  top: "slice2_28_3"
  top: "slice2_28_4"
  top: "slice2_28_5"
  top: "slice2_28_6"
  top: "slice2_28_7"
  top: "slice2_28_8"
  top: "slice2_28_9"
  top: "slice2_28_10"
  top: "slice2_28_11"
  top: "slice2_28_12"
  top: "slice2_28_13"
  top: "slice2_28_14"
  top: "slice2_28_15"
  top: "slice2_28_16"
  top: "slice2_28_17"
  top: "slice2_28_18"
  top: "slice2_28_19"
  top: "slice2_28_20"
  top: "slice2_28_21"
  top: "slice2_28_22"
  top: "slice2_28_23"
  top: "slice2_28_24"
  top: "slice2_28_25"
  top: "slice2_28_26"
  top: "slice2_28_27"
  top: "slice2_28_28"
  top: "slice2_28_29"
  top: "slice2_28_30"
  top: "slice2_28_31"
  top: "slice2_28_32"
  top: "slice2_28_33"
  top: "slice2_28_34"
  top: "slice2_28_35"
  top: "slice2_28_36"
  top: "slice2_28_37"
  top: "slice2_28_38"
  top: "slice2_28_39"
  top: "slice2_28_40"
  top: "slice2_28_41"
  top: "slice2_28_42"
  top: "slice2_28_43"
  top: "slice2_28_44"
  top: "slice2_28_45"
  top: "slice2_28_46"
  top: "slice2_28_47"
  top: "slice2_28_48"
  top: "slice2_28_49"
  top: "slice2_28_50"
  top: "slice2_28_51"
  top: "slice2_28_52"
  top: "slice2_28_53"
  top: "slice2_28_54"
  top: "slice2_28_55"
  top: "slice2_28_56"
  top: "slice2_28_57"
  top: "slice2_28_58"
  top: "slice2_28_59"
  top: "slice2_28_60"
  top: "slice2_28_61"
  top: "slice2_28_62"
  top: "slice2_28_63"
  top: "slice2_28_64"
  slice_param {
    axis: 2
    slice_point: 1
    slice_point: 2
    slice_point: 3
    slice_point: 4
    slice_point: 5
    slice_point: 6
    slice_point: 7
    slice_point: 8
    slice_point: 9
    slice_point: 10
    slice_point: 11
    slice_point: 12
    slice_point: 13
    slice_point: 14
    slice_point: 15
    slice_point: 16
    slice_point: 17
    slice_point: 18
    slice_point: 19
    slice_point: 20
    slice_point: 21
    slice_point: 22
    slice_point: 23
    slice_point: 24
    slice_point: 25
    slice_point: 26
    slice_point: 27
    slice_point: 28
    slice_point: 29
    slice_point: 30
    slice_point: 31
    slice_point: 32
    slice_point: 33
    slice_point: 34
    slice_point: 35
    slice_point: 36
    slice_point: 37
    slice_point: 38
    slice_point: 39
    slice_point: 40
    slice_point: 41
    slice_point: 42
    slice_point: 43
    slice_point: 44
    slice_point: 45
    slice_point: 46
    slice_point: 47
    slice_point: 48
    slice_point: 49
    slice_point: 50
    slice_point: 51
    slice_point: 52
    slice_point: 53
    slice_point: 54
    slice_point: 55
    slice_point: 56
    slice_point: 57
    slice_point: 58
    slice_point: 59
    slice_point: 60
    slice_point: 61
    slice_point: 62
    slice_point: 63
  }
}
layer {
  name: "slice2_29"
  type: "Slice"
  bottom: "slice1_29"
  top: "slice2_29_1"
  top: "slice2_29_2"
  top: "slice2_29_3"
  top: "slice2_29_4"
  top: "slice2_29_5"
  top: "slice2_29_6"
  top: "slice2_29_7"
  top: "slice2_29_8"
  top: "slice2_29_9"
  top: "slice2_29_10"
  top: "slice2_29_11"
  top: "slice2_29_12"
  top: "slice2_29_13"
  top: "slice2_29_14"
  top: "slice2_29_15"
  top: "slice2_29_16"
  top: "slice2_29_17"
  top: "slice2_29_18"
  top: "slice2_29_19"
  top: "slice2_29_20"
  top: "slice2_29_21"
  top: "slice2_29_22"
  top: "slice2_29_23"
  top: "slice2_29_24"
  top: "slice2_29_25"
  top: "slice2_29_26"
  top: "slice2_29_27"
  top: "slice2_29_28"
  top: "slice2_29_29"
  top: "slice2_29_30"
  top: "slice2_29_31"
  top: "slice2_29_32"
  top: "slice2_29_33"
  top: "slice2_29_34"
  top: "slice2_29_35"
  top: "slice2_29_36"
  top: "slice2_29_37"
  top: "slice2_29_38"
  top: "slice2_29_39"
  top: "slice2_29_40"
  top: "slice2_29_41"
  top: "slice2_29_42"
  top: "slice2_29_43"
  top: "slice2_29_44"
  top: "slice2_29_45"
  top: "slice2_29_46"
  top: "slice2_29_47"
  top: "slice2_29_48"
  top: "slice2_29_49"
  top: "slice2_29_50"
  top: "slice2_29_51"
  top: "slice2_29_52"
  top: "slice2_29_53"
  top: "slice2_29_54"
  top: "slice2_29_55"
  top: "slice2_29_56"
  top: "slice2_29_57"
  top: "slice2_29_58"
  top: "slice2_29_59"
  top: "slice2_29_60"
  top: "slice2_29_61"
  top: "slice2_29_62"
  top: "slice2_29_63"
  top: "slice2_29_64"
  slice_param {
    axis: 2
    slice_point: 1
    slice_point: 2
    slice_point: 3
    slice_point: 4
    slice_point: 5
    slice_point: 6
    slice_point: 7
    slice_point: 8
    slice_point: 9
    slice_point: 10
    slice_point: 11
    slice_point: 12
    slice_point: 13
    slice_point: 14
    slice_point: 15
    slice_point: 16
    slice_point: 17
    slice_point: 18
    slice_point: 19
    slice_point: 20
    slice_point: 21
    slice_point: 22
    slice_point: 23
    slice_point: 24
    slice_point: 25
    slice_point: 26
    slice_point: 27
    slice_point: 28
    slice_point: 29
    slice_point: 30
    slice_point: 31
    slice_point: 32
    slice_point: 33
    slice_point: 34
    slice_point: 35
    slice_point: 36
    slice_point: 37
    slice_point: 38
    slice_point: 39
    slice_point: 40
    slice_point: 41
    slice_point: 42
    slice_point: 43
    slice_point: 44
    slice_point: 45
    slice_point: 46
    slice_point: 47
    slice_point: 48
    slice_point: 49
    slice_point: 50
    slice_point: 51
    slice_point: 52
    slice_point: 53
    slice_point: 54
    slice_point: 55
    slice_point: 56
    slice_point: 57
    slice_point: 58
    slice_point: 59
    slice_point: 60
    slice_point: 61
    slice_point: 62
    slice_point: 63
  }
}
layer {
  name: "slice2_30"
  type: "Slice"
  bottom: "slice1_30"
  top: "slice2_30_1"
  top: "slice2_30_2"
  top: "slice2_30_3"
  top: "slice2_30_4"
  top: "slice2_30_5"
  top: "slice2_30_6"
  top: "slice2_30_7"
  top: "slice2_30_8"
  top: "slice2_30_9"
  top: "slice2_30_10"
  top: "slice2_30_11"
  top: "slice2_30_12"
  top: "slice2_30_13"
  top: "slice2_30_14"
  top: "slice2_30_15"
  top: "slice2_30_16"
  top: "slice2_30_17"
  top: "slice2_30_18"
  top: "slice2_30_19"
  top: "slice2_30_20"
  top: "slice2_30_21"
  top: "slice2_30_22"
  top: "slice2_30_23"
  top: "slice2_30_24"
  top: "slice2_30_25"
  top: "slice2_30_26"
  top: "slice2_30_27"
  top: "slice2_30_28"
  top: "slice2_30_29"
  top: "slice2_30_30"
  top: "slice2_30_31"
  top: "slice2_30_32"
  top: "slice2_30_33"
  top: "slice2_30_34"
  top: "slice2_30_35"
  top: "slice2_30_36"
  top: "slice2_30_37"
  top: "slice2_30_38"
  top: "slice2_30_39"
  top: "slice2_30_40"
  top: "slice2_30_41"
  top: "slice2_30_42"
  top: "slice2_30_43"
  top: "slice2_30_44"
  top: "slice2_30_45"
  top: "slice2_30_46"
  top: "slice2_30_47"
  top: "slice2_30_48"
  top: "slice2_30_49"
  top: "slice2_30_50"
  top: "slice2_30_51"
  top: "slice2_30_52"
  top: "slice2_30_53"
  top: "slice2_30_54"
  top: "slice2_30_55"
  top: "slice2_30_56"
  top: "slice2_30_57"
  top: "slice2_30_58"
  top: "slice2_30_59"
  top: "slice2_30_60"
  top: "slice2_30_61"
  top: "slice2_30_62"
  top: "slice2_30_63"
  top: "slice2_30_64"
  slice_param {
    axis: 2
    slice_point: 1
    slice_point: 2
    slice_point: 3
    slice_point: 4
    slice_point: 5
    slice_point: 6
    slice_point: 7
    slice_point: 8
    slice_point: 9
    slice_point: 10
    slice_point: 11
    slice_point: 12
    slice_point: 13
    slice_point: 14
    slice_point: 15
    slice_point: 16
    slice_point: 17
    slice_point: 18
    slice_point: 19
    slice_point: 20
    slice_point: 21
    slice_point: 22
    slice_point: 23
    slice_point: 24
    slice_point: 25
    slice_point: 26
    slice_point: 27
    slice_point: 28
    slice_point: 29
    slice_point: 30
    slice_point: 31
    slice_point: 32
    slice_point: 33
    slice_point: 34
    slice_point: 35
    slice_point: 36
    slice_point: 37
    slice_point: 38
    slice_point: 39
    slice_point: 40
    slice_point: 41
    slice_point: 42
    slice_point: 43
    slice_point: 44
    slice_point: 45
    slice_point: 46
    slice_point: 47
    slice_point: 48
    slice_point: 49
    slice_point: 50
    slice_point: 51
    slice_point: 52
    slice_point: 53
    slice_point: 54
    slice_point: 55
    slice_point: 56
    slice_point: 57
    slice_point: 58
    slice_point: 59
    slice_point: 60
    slice_point: 61
    slice_point: 62
    slice_point: 63
  }
}
layer {
  name: "slice2_31"
  type: "Slice"
  bottom: "slice1_31"
  top: "slice2_31_1"
  top: "slice2_31_2"
  top: "slice2_31_3"
  top: "slice2_31_4"
  top: "slice2_31_5"
  top: "slice2_31_6"
  top: "slice2_31_7"
  top: "slice2_31_8"
  top: "slice2_31_9"
  top: "slice2_31_10"
  top: "slice2_31_11"
  top: "slice2_31_12"
  top: "slice2_31_13"
  top: "slice2_31_14"
  top: "slice2_31_15"
  top: "slice2_31_16"
  top: "slice2_31_17"
  top: "slice2_31_18"
  top: "slice2_31_19"
  top: "slice2_31_20"
  top: "slice2_31_21"
  top: "slice2_31_22"
  top: "slice2_31_23"
  top: "slice2_31_24"
  top: "slice2_31_25"
  top: "slice2_31_26"
  top: "slice2_31_27"
  top: "slice2_31_28"
  top: "slice2_31_29"
  top: "slice2_31_30"
  top: "slice2_31_31"
  top: "slice2_31_32"
  top: "slice2_31_33"
  top: "slice2_31_34"
  top: "slice2_31_35"
  top: "slice2_31_36"
  top: "slice2_31_37"
  top: "slice2_31_38"
  top: "slice2_31_39"
  top: "slice2_31_40"
  top: "slice2_31_41"
  top: "slice2_31_42"
  top: "slice2_31_43"
  top: "slice2_31_44"
  top: "slice2_31_45"
  top: "slice2_31_46"
  top: "slice2_31_47"
  top: "slice2_31_48"
  top: "slice2_31_49"
  top: "slice2_31_50"
  top: "slice2_31_51"
  top: "slice2_31_52"
  top: "slice2_31_53"
  top: "slice2_31_54"
  top: "slice2_31_55"
  top: "slice2_31_56"
  top: "slice2_31_57"
  top: "slice2_31_58"
  top: "slice2_31_59"
  top: "slice2_31_60"
  top: "slice2_31_61"
  top: "slice2_31_62"
  top: "slice2_31_63"
  top: "slice2_31_64"
  slice_param {
    axis: 2
    slice_point: 1
    slice_point: 2
    slice_point: 3
    slice_point: 4
    slice_point: 5
    slice_point: 6
    slice_point: 7
    slice_point: 8
    slice_point: 9
    slice_point: 10
    slice_point: 11
    slice_point: 12
    slice_point: 13
    slice_point: 14
    slice_point: 15
    slice_point: 16
    slice_point: 17
    slice_point: 18
    slice_point: 19
    slice_point: 20
    slice_point: 21
    slice_point: 22
    slice_point: 23
    slice_point: 24
    slice_point: 25
    slice_point: 26
    slice_point: 27
    slice_point: 28
    slice_point: 29
    slice_point: 30
    slice_point: 31
    slice_point: 32
    slice_point: 33
    slice_point: 34
    slice_point: 35
    slice_point: 36
    slice_point: 37
    slice_point: 38
    slice_point: 39
    slice_point: 40
    slice_point: 41
    slice_point: 42
    slice_point: 43
    slice_point: 44
    slice_point: 45
    slice_point: 46
    slice_point: 47
    slice_point: 48
    slice_point: 49
    slice_point: 50
    slice_point: 51
    slice_point: 52
    slice_point: 53
    slice_point: 54
    slice_point: 55
    slice_point: 56
    slice_point: 57
    slice_point: 58
    slice_point: 59
    slice_point: 60
    slice_point: 61
    slice_point: 62
    slice_point: 63
  }
}
layer {
  name: "concat1_1"
  type: "Concat"
  bottom: "slice2_1_1"
  bottom: "slice2_2_64"
  bottom: "slice2_3_63"
  bottom: "slice2_4_62"
  bottom: "slice2_5_61"
  bottom: "slice2_6_60"
  bottom: "slice2_7_59"
  bottom: "slice2_8_58"
  bottom: "slice2_9_57"
  bottom: "slice2_10_56"
  bottom: "slice2_11_55"
  bottom: "slice2_12_54"
  bottom: "slice2_13_53"
  bottom: "slice2_14_52"
  bottom: "slice2_15_51"
  bottom: "slice2_16_50"
  bottom: "slice2_17_49"
  bottom: "slice2_18_48"
  bottom: "slice2_19_47"
  bottom: "slice2_20_46"
  bottom: "slice2_21_45"
  bottom: "slice2_22_44"
  bottom: "slice2_23_43"
  bottom: "slice2_24_42"
  bottom: "slice2_25_41"
  bottom: "slice2_26_40"
  bottom: "slice2_27_39"
  bottom: "slice2_28_38"
  bottom: "slice2_29_37"
  bottom: "slice2_30_36"
  bottom: "slice2_31_35"
  top: "concat1_1"
  concat_param {
    axis: 2
  }
}
layer {
  name: "concat1_2"
  type: "Concat"
  bottom: "slice2_1_2"
  bottom: "slice2_2_1"
  bottom: "slice2_3_64"
  bottom: "slice2_4_63"
  bottom: "slice2_5_62"
  bottom: "slice2_6_61"
  bottom: "slice2_7_60"
  bottom: "slice2_8_59"
  bottom: "slice2_9_58"
  bottom: "slice2_10_57"
  bottom: "slice2_11_56"
  bottom: "slice2_12_55"
  bottom: "slice2_13_54"
  bottom: "slice2_14_53"
  bottom: "slice2_15_52"
  bottom: "slice2_16_51"
  bottom: "slice2_17_50"
  bottom: "slice2_18_49"
  bottom: "slice2_19_48"
  bottom: "slice2_20_47"
  bottom: "slice2_21_46"
  bottom: "slice2_22_45"
  bottom: "slice2_23_44"
  bottom: "slice2_24_43"
  bottom: "slice2_25_42"
  bottom: "slice2_26_41"
  bottom: "slice2_27_40"
  bottom: "slice2_28_39"
  bottom: "slice2_29_38"
  bottom: "slice2_30_37"
  bottom: "slice2_31_36"
  top: "concat1_2"
  concat_param {
    axis: 2
  }
}
layer {
  name: "concat1_3"
  type: "Concat"
  bottom: "slice2_1_3"
  bottom: "slice2_2_2"
  bottom: "slice2_3_1"
  bottom: "slice2_4_64"
  bottom: "slice2_5_63"
  bottom: "slice2_6_62"
  bottom: "slice2_7_61"
  bottom: "slice2_8_60"
  bottom: "slice2_9_59"
  bottom: "slice2_10_58"
  bottom: "slice2_11_57"
  bottom: "slice2_12_56"
  bottom: "slice2_13_55"
  bottom: "slice2_14_54"
  bottom: "slice2_15_53"
  bottom: "slice2_16_52"
  bottom: "slice2_17_51"
  bottom: "slice2_18_50"
  bottom: "slice2_19_49"
  bottom: "slice2_20_48"
  bottom: "slice2_21_47"
  bottom: "slice2_22_46"
  bottom: "slice2_23_45"
  bottom: "slice2_24_44"
  bottom: "slice2_25_43"
  bottom: "slice2_26_42"
  bottom: "slice2_27_41"
  bottom: "slice2_28_40"
  bottom: "slice2_29_39"
  bottom: "slice2_30_38"
  bottom: "slice2_31_37"
  top: "concat1_3"
  concat_param {
    axis: 2
  }
}
layer {
  name: "concat1_4"
  type: "Concat"
  bottom: "slice2_1_4"
  bottom: "slice2_2_3"
  bottom: "slice2_3_2"
  bottom: "slice2_4_1"
  bottom: "slice2_5_64"
  bottom: "slice2_6_63"
  bottom: "slice2_7_62"
  bottom: "slice2_8_61"
  bottom: "slice2_9_60"
  bottom: "slice2_10_59"
  bottom: "slice2_11_58"
  bottom: "slice2_12_57"
  bottom: "slice2_13_56"
  bottom: "slice2_14_55"
  bottom: "slice2_15_54"
  bottom: "slice2_16_53"
  bottom: "slice2_17_52"
  bottom: "slice2_18_51"
  bottom: "slice2_19_50"
  bottom: "slice2_20_49"
  bottom: "slice2_21_48"
  bottom: "slice2_22_47"
  bottom: "slice2_23_46"
  bottom: "slice2_24_45"
  bottom: "slice2_25_44"
  bottom: "slice2_26_43"
  bottom: "slice2_27_42"
  bottom: "slice2_28_41"
  bottom: "slice2_29_40"
  bottom: "slice2_30_39"
  bottom: "slice2_31_38"
  top: "concat1_4"
  concat_param {
    axis: 2
  }
}
layer {
  name: "concat1_5"
  type: "Concat"
  bottom: "slice2_1_5"
  bottom: "slice2_2_4"
  bottom: "slice2_3_3"
  bottom: "slice2_4_2"
  bottom: "slice2_5_1"
  bottom: "slice2_6_64"
  bottom: "slice2_7_63"
  bottom: "slice2_8_62"
  bottom: "slice2_9_61"
  bottom: "slice2_10_60"
  bottom: "slice2_11_59"
  bottom: "slice2_12_58"
  bottom: "slice2_13_57"
  bottom: "slice2_14_56"
  bottom: "slice2_15_55"
  bottom: "slice2_16_54"
  bottom: "slice2_17_53"
  bottom: "slice2_18_52"
  bottom: "slice2_19_51"
  bottom: "slice2_20_50"
  bottom: "slice2_21_49"
  bottom: "slice2_22_48"
  bottom: "slice2_23_47"
  bottom: "slice2_24_46"
  bottom: "slice2_25_45"
  bottom: "slice2_26_44"
  bottom: "slice2_27_43"
  bottom: "slice2_28_42"
  bottom: "slice2_29_41"
  bottom: "slice2_30_40"
  bottom: "slice2_31_39"
  top: "concat1_5"
  concat_param {
    axis: 2
  }
}
layer {
  name: "concat1_6"
  type: "Concat"
  bottom: "slice2_1_6"
  bottom: "slice2_2_5"
  bottom: "slice2_3_4"
  bottom: "slice2_4_3"
  bottom: "slice2_5_2"
  bottom: "slice2_6_1"
  bottom: "slice2_7_64"
  bottom: "slice2_8_63"
  bottom: "slice2_9_62"
  bottom: "slice2_10_61"
  bottom: "slice2_11_60"
  bottom: "slice2_12_59"
  bottom: "slice2_13_58"
  bottom: "slice2_14_57"
  bottom: "slice2_15_56"
  bottom: "slice2_16_55"
  bottom: "slice2_17_54"
  bottom: "slice2_18_53"
  bottom: "slice2_19_52"
  bottom: "slice2_20_51"
  bottom: "slice2_21_50"
  bottom: "slice2_22_49"
  bottom: "slice2_23_48"
  bottom: "slice2_24_47"
  bottom: "slice2_25_46"
  bottom: "slice2_26_45"
  bottom: "slice2_27_44"
  bottom: "slice2_28_43"
  bottom: "slice2_29_42"
  bottom: "slice2_30_41"
  bottom: "slice2_31_40"
  top: "concat1_6"
  concat_param {
    axis: 2
  }
}
layer {
  name: "concat1_7"
  type: "Concat"
  bottom: "slice2_1_7"
  bottom: "slice2_2_6"
  bottom: "slice2_3_5"
  bottom: "slice2_4_4"
  bottom: "slice2_5_3"
  bottom: "slice2_6_2"
  bottom: "slice2_7_1"
  bottom: "slice2_8_64"
  bottom: "slice2_9_63"
  bottom: "slice2_10_62"
  bottom: "slice2_11_61"
  bottom: "slice2_12_60"
  bottom: "slice2_13_59"
  bottom: "slice2_14_58"
  bottom: "slice2_15_57"
  bottom: "slice2_16_56"
  bottom: "slice2_17_55"
  bottom: "slice2_18_54"
  bottom: "slice2_19_53"
  bottom: "slice2_20_52"
  bottom: "slice2_21_51"
  bottom: "slice2_22_50"
  bottom: "slice2_23_49"
  bottom: "slice2_24_48"
  bottom: "slice2_25_47"
  bottom: "slice2_26_46"
  bottom: "slice2_27_45"
  bottom: "slice2_28_44"
  bottom: "slice2_29_43"
  bottom: "slice2_30_42"
  bottom: "slice2_31_41"
  top: "concat1_7"
  concat_param {
    axis: 2
  }
}
layer {
  name: "concat1_8"
  type: "Concat"
  bottom: "slice2_1_8"
  bottom: "slice2_2_7"
  bottom: "slice2_3_6"
  bottom: "slice2_4_5"
  bottom: "slice2_5_4"
  bottom: "slice2_6_3"
  bottom: "slice2_7_2"
  bottom: "slice2_8_1"
  bottom: "slice2_9_64"
  bottom: "slice2_10_63"
  bottom: "slice2_11_62"
  bottom: "slice2_12_61"
  bottom: "slice2_13_60"
  bottom: "slice2_14_59"
  bottom: "slice2_15_58"
  bottom: "slice2_16_57"
  bottom: "slice2_17_56"
  bottom: "slice2_18_55"
  bottom: "slice2_19_54"
  bottom: "slice2_20_53"
  bottom: "slice2_21_52"
  bottom: "slice2_22_51"
  bottom: "slice2_23_50"
  bottom: "slice2_24_49"
  bottom: "slice2_25_48"
  bottom: "slice2_26_47"
  bottom: "slice2_27_46"
  bottom: "slice2_28_45"
  bottom: "slice2_29_44"
  bottom: "slice2_30_43"
  bottom: "slice2_31_42"
  top: "concat1_8"
  concat_param {
    axis: 2
  }
}
layer {
  name: "concat1_9"
  type: "Concat"
  bottom: "slice2_1_9"
  bottom: "slice2_2_8"
  bottom: "slice2_3_7"
  bottom: "slice2_4_6"
  bottom: "slice2_5_5"
  bottom: "slice2_6_4"
  bottom: "slice2_7_3"
  bottom: "slice2_8_2"
  bottom: "slice2_9_1"
  bottom: "slice2_10_64"
  bottom: "slice2_11_63"
  bottom: "slice2_12_62"
  bottom: "slice2_13_61"
  bottom: "slice2_14_60"
  bottom: "slice2_15_59"
  bottom: "slice2_16_58"
  bottom: "slice2_17_57"
  bottom: "slice2_18_56"
  bottom: "slice2_19_55"
  bottom: "slice2_20_54"
  bottom: "slice2_21_53"
  bottom: "slice2_22_52"
  bottom: "slice2_23_51"
  bottom: "slice2_24_50"
  bottom: "slice2_25_49"
  bottom: "slice2_26_48"
  bottom: "slice2_27_47"
  bottom: "slice2_28_46"
  bottom: "slice2_29_45"
  bottom: "slice2_30_44"
  bottom: "slice2_31_43"
  top: "concat1_9"
  concat_param {
    axis: 2
  }
}
layer {
  name: "concat1_10"
  type: "Concat"
  bottom: "slice2_1_10"
  bottom: "slice2_2_9"
  bottom: "slice2_3_8"
  bottom: "slice2_4_7"
  bottom: "slice2_5_6"
  bottom: "slice2_6_5"
  bottom: "slice2_7_4"
  bottom: "slice2_8_3"
  bottom: "slice2_9_2"
  bottom: "slice2_10_1"
  bottom: "slice2_11_64"
  bottom: "slice2_12_63"
  bottom: "slice2_13_62"
  bottom: "slice2_14_61"
  bottom: "slice2_15_60"
  bottom: "slice2_16_59"
  bottom: "slice2_17_58"
  bottom: "slice2_18_57"
  bottom: "slice2_19_56"
  bottom: "slice2_20_55"
  bottom: "slice2_21_54"
  bottom: "slice2_22_53"
  bottom: "slice2_23_52"
  bottom: "slice2_24_51"
  bottom: "slice2_25_50"
  bottom: "slice2_26_49"
  bottom: "slice2_27_48"
  bottom: "slice2_28_47"
  bottom: "slice2_29_46"
  bottom: "slice2_30_45"
  bottom: "slice2_31_44"
  top: "concat1_10"
  concat_param {
    axis: 2
  }
}
layer {
  name: "concat1_11"
  type: "Concat"
  bottom: "slice2_1_11"
  bottom: "slice2_2_10"
  bottom: "slice2_3_9"
  bottom: "slice2_4_8"
  bottom: "slice2_5_7"
  bottom: "slice2_6_6"
  bottom: "slice2_7_5"
  bottom: "slice2_8_4"
  bottom: "slice2_9_3"
  bottom: "slice2_10_2"
  bottom: "slice2_11_1"
  bottom: "slice2_12_64"
  bottom: "slice2_13_63"
  bottom: "slice2_14_62"
  bottom: "slice2_15_61"
  bottom: "slice2_16_60"
  bottom: "slice2_17_59"
  bottom: "slice2_18_58"
  bottom: "slice2_19_57"
  bottom: "slice2_20_56"
  bottom: "slice2_21_55"
  bottom: "slice2_22_54"
  bottom: "slice2_23_53"
  bottom: "slice2_24_52"
  bottom: "slice2_25_51"
  bottom: "slice2_26_50"
  bottom: "slice2_27_49"
  bottom: "slice2_28_48"
  bottom: "slice2_29_47"
  bottom: "slice2_30_46"
  bottom: "slice2_31_45"
  top: "concat1_11"
  concat_param {
    axis: 2
  }
}
layer {
  name: "concat1_12"
  type: "Concat"
  bottom: "slice2_1_12"
  bottom: "slice2_2_11"
  bottom: "slice2_3_10"
  bottom: "slice2_4_9"
  bottom: "slice2_5_8"
  bottom: "slice2_6_7"
  bottom: "slice2_7_6"
  bottom: "slice2_8_5"
  bottom: "slice2_9_4"
  bottom: "slice2_10_3"
  bottom: "slice2_11_2"
  bottom: "slice2_12_1"
  bottom: "slice2_13_64"
  bottom: "slice2_14_63"
  bottom: "slice2_15_62"
  bottom: "slice2_16_61"
  bottom: "slice2_17_60"
  bottom: "slice2_18_59"
  bottom: "slice2_19_58"
  bottom: "slice2_20_57"
  bottom: "slice2_21_56"
  bottom: "slice2_22_55"
  bottom: "slice2_23_54"
  bottom: "slice2_24_53"
  bottom: "slice2_25_52"
  bottom: "slice2_26_51"
  bottom: "slice2_27_50"
  bottom: "slice2_28_49"
  bottom: "slice2_29_48"
  bottom: "slice2_30_47"
  bottom: "slice2_31_46"
  top: "concat1_12"
  concat_param {
    axis: 2
  }
}
layer {
  name: "concat1_13"
  type: "Concat"
  bottom: "slice2_1_13"
  bottom: "slice2_2_12"
  bottom: "slice2_3_11"
  bottom: "slice2_4_10"
  bottom: "slice2_5_9"
  bottom: "slice2_6_8"
  bottom: "slice2_7_7"
  bottom: "slice2_8_6"
  bottom: "slice2_9_5"
  bottom: "slice2_10_4"
  bottom: "slice2_11_3"
  bottom: "slice2_12_2"
  bottom: "slice2_13_1"
  bottom: "slice2_14_64"
  bottom: "slice2_15_63"
  bottom: "slice2_16_62"
  bottom: "slice2_17_61"
  bottom: "slice2_18_60"
  bottom: "slice2_19_59"
  bottom: "slice2_20_58"
  bottom: "slice2_21_57"
  bottom: "slice2_22_56"
  bottom: "slice2_23_55"
  bottom: "slice2_24_54"
  bottom: "slice2_25_53"
  bottom: "slice2_26_52"
  bottom: "slice2_27_51"
  bottom: "slice2_28_50"
  bottom: "slice2_29_49"
  bottom: "slice2_30_48"
  bottom: "slice2_31_47"
  top: "concat1_13"
  concat_param {
    axis: 2
  }
}
layer {
  name: "concat1_14"
  type: "Concat"
  bottom: "slice2_1_14"
  bottom: "slice2_2_13"
  bottom: "slice2_3_12"
  bottom: "slice2_4_11"
  bottom: "slice2_5_10"
  bottom: "slice2_6_9"
  bottom: "slice2_7_8"
  bottom: "slice2_8_7"
  bottom: "slice2_9_6"
  bottom: "slice2_10_5"
  bottom: "slice2_11_4"
  bottom: "slice2_12_3"
  bottom: "slice2_13_2"
  bottom: "slice2_14_1"
  bottom: "slice2_15_64"
  bottom: "slice2_16_63"
  bottom: "slice2_17_62"
  bottom: "slice2_18_61"
  bottom: "slice2_19_60"
  bottom: "slice2_20_59"
  bottom: "slice2_21_58"
  bottom: "slice2_22_57"
  bottom: "slice2_23_56"
  bottom: "slice2_24_55"
  bottom: "slice2_25_54"
  bottom: "slice2_26_53"
  bottom: "slice2_27_52"
  bottom: "slice2_28_51"
  bottom: "slice2_29_50"
  bottom: "slice2_30_49"
  bottom: "slice2_31_48"
  top: "concat1_14"
  concat_param {
    axis: 2
  }
}
layer {
  name: "concat1_15"
  type: "Concat"
  bottom: "slice2_1_15"
  bottom: "slice2_2_14"
  bottom: "slice2_3_13"
  bottom: "slice2_4_12"
  bottom: "slice2_5_11"
  bottom: "slice2_6_10"
  bottom: "slice2_7_9"
  bottom: "slice2_8_8"
  bottom: "slice2_9_7"
  bottom: "slice2_10_6"
  bottom: "slice2_11_5"
  bottom: "slice2_12_4"
  bottom: "slice2_13_3"
  bottom: "slice2_14_2"
  bottom: "slice2_15_1"
  bottom: "slice2_16_64"
  bottom: "slice2_17_63"
  bottom: "slice2_18_62"
  bottom: "slice2_19_61"
  bottom: "slice2_20_60"
  bottom: "slice2_21_59"
  bottom: "slice2_22_58"
  bottom: "slice2_23_57"
  bottom: "slice2_24_56"
  bottom: "slice2_25_55"
  bottom: "slice2_26_54"
  bottom: "slice2_27_53"
  bottom: "slice2_28_52"
  bottom: "slice2_29_51"
  bottom: "slice2_30_50"
  bottom: "slice2_31_49"
  top: "concat1_15"
  concat_param {
    axis: 2
  }
}
layer {
  name: "concat1_16"
  type: "Concat"
  bottom: "slice2_1_16"
  bottom: "slice2_2_15"
  bottom: "slice2_3_14"
  bottom: "slice2_4_13"
  bottom: "slice2_5_12"
  bottom: "slice2_6_11"
  bottom: "slice2_7_10"
  bottom: "slice2_8_9"
  bottom: "slice2_9_8"
  bottom: "slice2_10_7"
  bottom: "slice2_11_6"
  bottom: "slice2_12_5"
  bottom: "slice2_13_4"
  bottom: "slice2_14_3"
  bottom: "slice2_15_2"
  bottom: "slice2_16_1"
  bottom: "slice2_17_64"
  bottom: "slice2_18_63"
  bottom: "slice2_19_62"
  bottom: "slice2_20_61"
  bottom: "slice2_21_60"
  bottom: "slice2_22_59"
  bottom: "slice2_23_58"
  bottom: "slice2_24_57"
  bottom: "slice2_25_56"
  bottom: "slice2_26_55"
  bottom: "slice2_27_54"
  bottom: "slice2_28_53"
  bottom: "slice2_29_52"
  bottom: "slice2_30_51"
  bottom: "slice2_31_50"
  top: "concat1_16"
  concat_param {
    axis: 2
  }
}
layer {
  name: "concat1_17"
  type: "Concat"
  bottom: "slice2_1_17"
  bottom: "slice2_2_16"
  bottom: "slice2_3_15"
  bottom: "slice2_4_14"
  bottom: "slice2_5_13"
  bottom: "slice2_6_12"
  bottom: "slice2_7_11"
  bottom: "slice2_8_10"
  bottom: "slice2_9_9"
  bottom: "slice2_10_8"
  bottom: "slice2_11_7"
  bottom: "slice2_12_6"
  bottom: "slice2_13_5"
  bottom: "slice2_14_4"
  bottom: "slice2_15_3"
  bottom: "slice2_16_2"
  bottom: "slice2_17_1"
  bottom: "slice2_18_64"
  bottom: "slice2_19_63"
  bottom: "slice2_20_62"
  bottom: "slice2_21_61"
  bottom: "slice2_22_60"
  bottom: "slice2_23_59"
  bottom: "slice2_24_58"
  bottom: "slice2_25_57"
  bottom: "slice2_26_56"
  bottom: "slice2_27_55"
  bottom: "slice2_28_54"
  bottom: "slice2_29_53"
  bottom: "slice2_30_52"
  bottom: "slice2_31_51"
  top: "concat1_17"
  concat_param {
    axis: 2
  }
}
layer {
  name: "concat1_18"
  type: "Concat"
  bottom: "slice2_1_18"
  bottom: "slice2_2_17"
  bottom: "slice2_3_16"
  bottom: "slice2_4_15"
  bottom: "slice2_5_14"
  bottom: "slice2_6_13"
  bottom: "slice2_7_12"
  bottom: "slice2_8_11"
  bottom: "slice2_9_10"
  bottom: "slice2_10_9"
  bottom: "slice2_11_8"
  bottom: "slice2_12_7"
  bottom: "slice2_13_6"
  bottom: "slice2_14_5"
  bottom: "slice2_15_4"
  bottom: "slice2_16_3"
  bottom: "slice2_17_2"
  bottom: "slice2_18_1"
  bottom: "slice2_19_64"
  bottom: "slice2_20_63"
  bottom: "slice2_21_62"
  bottom: "slice2_22_61"
  bottom: "slice2_23_60"
  bottom: "slice2_24_59"
  bottom: "slice2_25_58"
  bottom: "slice2_26_57"
  bottom: "slice2_27_56"
  bottom: "slice2_28_55"
  bottom: "slice2_29_54"
  bottom: "slice2_30_53"
  bottom: "slice2_31_52"
  top: "concat1_18"
  concat_param {
    axis: 2
  }
}
layer {
  name: "concat1_19"
  type: "Concat"
  bottom: "slice2_1_19"
  bottom: "slice2_2_18"
  bottom: "slice2_3_17"
  bottom: "slice2_4_16"
  bottom: "slice2_5_15"
  bottom: "slice2_6_14"
  bottom: "slice2_7_13"
  bottom: "slice2_8_12"
  bottom: "slice2_9_11"
  bottom: "slice2_10_10"
  bottom: "slice2_11_9"
  bottom: "slice2_12_8"
  bottom: "slice2_13_7"
  bottom: "slice2_14_6"
  bottom: "slice2_15_5"
  bottom: "slice2_16_4"
  bottom: "slice2_17_3"
  bottom: "slice2_18_2"
  bottom: "slice2_19_1"
  bottom: "slice2_20_64"
  bottom: "slice2_21_63"
  bottom: "slice2_22_62"
  bottom: "slice2_23_61"
  bottom: "slice2_24_60"
  bottom: "slice2_25_59"
  bottom: "slice2_26_58"
  bottom: "slice2_27_57"
  bottom: "slice2_28_56"
  bottom: "slice2_29_55"
  bottom: "slice2_30_54"
  bottom: "slice2_31_53"
  top: "concat1_19"
  concat_param {
    axis: 2
  }
}
layer {
  name: "concat1_20"
  type: "Concat"
  bottom: "slice2_1_20"
  bottom: "slice2_2_19"
  bottom: "slice2_3_18"
  bottom: "slice2_4_17"
  bottom: "slice2_5_16"
  bottom: "slice2_6_15"
  bottom: "slice2_7_14"
  bottom: "slice2_8_13"
  bottom: "slice2_9_12"
  bottom: "slice2_10_11"
  bottom: "slice2_11_10"
  bottom: "slice2_12_9"
  bottom: "slice2_13_8"
  bottom: "slice2_14_7"
  bottom: "slice2_15_6"
  bottom: "slice2_16_5"
  bottom: "slice2_17_4"
  bottom: "slice2_18_3"
  bottom: "slice2_19_2"
  bottom: "slice2_20_1"
  bottom: "slice2_21_64"
  bottom: "slice2_22_63"
  bottom: "slice2_23_62"
  bottom: "slice2_24_61"
  bottom: "slice2_25_60"
  bottom: "slice2_26_59"
  bottom: "slice2_27_58"
  bottom: "slice2_28_57"
  bottom: "slice2_29_56"
  bottom: "slice2_30_55"
  bottom: "slice2_31_54"
  top: "concat1_20"
  concat_param {
    axis: 2
  }
}
layer {
  name: "concat1_21"
  type: "Concat"
  bottom: "slice2_1_21"
  bottom: "slice2_2_20"
  bottom: "slice2_3_19"
  bottom: "slice2_4_18"
  bottom: "slice2_5_17"
  bottom: "slice2_6_16"
  bottom: "slice2_7_15"
  bottom: "slice2_8_14"
  bottom: "slice2_9_13"
  bottom: "slice2_10_12"
  bottom: "slice2_11_11"
  bottom: "slice2_12_10"
  bottom: "slice2_13_9"
  bottom: "slice2_14_8"
  bottom: "slice2_15_7"
  bottom: "slice2_16_6"
  bottom: "slice2_17_5"
  bottom: "slice2_18_4"
  bottom: "slice2_19_3"
  bottom: "slice2_20_2"
  bottom: "slice2_21_1"
  bottom: "slice2_22_64"
  bottom: "slice2_23_63"
  bottom: "slice2_24_62"
  bottom: "slice2_25_61"
  bottom: "slice2_26_60"
  bottom: "slice2_27_59"
  bottom: "slice2_28_58"
  bottom: "slice2_29_57"
  bottom: "slice2_30_56"
  bottom: "slice2_31_55"
  top: "concat1_21"
  concat_param {
    axis: 2
  }
}
layer {
  name: "concat1_22"
  type: "Concat"
  bottom: "slice2_1_22"
  bottom: "slice2_2_21"
  bottom: "slice2_3_20"
  bottom: "slice2_4_19"
  bottom: "slice2_5_18"
  bottom: "slice2_6_17"
  bottom: "slice2_7_16"
  bottom: "slice2_8_15"
  bottom: "slice2_9_14"
  bottom: "slice2_10_13"
  bottom: "slice2_11_12"
  bottom: "slice2_12_11"
  bottom: "slice2_13_10"
  bottom: "slice2_14_9"
  bottom: "slice2_15_8"
  bottom: "slice2_16_7"
  bottom: "slice2_17_6"
  bottom: "slice2_18_5"
  bottom: "slice2_19_4"
  bottom: "slice2_20_3"
  bottom: "slice2_21_2"
  bottom: "slice2_22_1"
  bottom: "slice2_23_64"
  bottom: "slice2_24_63"
  bottom: "slice2_25_62"
  bottom: "slice2_26_61"
  bottom: "slice2_27_60"
  bottom: "slice2_28_59"
  bottom: "slice2_29_58"
  bottom: "slice2_30_57"
  bottom: "slice2_31_56"
  top: "concat1_22"
  concat_param {
    axis: 2
  }
}
layer {
  name: "concat1_23"
  type: "Concat"
  bottom: "slice2_1_23"
  bottom: "slice2_2_22"
  bottom: "slice2_3_21"
  bottom: "slice2_4_20"
  bottom: "slice2_5_19"
  bottom: "slice2_6_18"
  bottom: "slice2_7_17"
  bottom: "slice2_8_16"
  bottom: "slice2_9_15"
  bottom: "slice2_10_14"
  bottom: "slice2_11_13"
  bottom: "slice2_12_12"
  bottom: "slice2_13_11"
  bottom: "slice2_14_10"
  bottom: "slice2_15_9"
  bottom: "slice2_16_8"
  bottom: "slice2_17_7"
  bottom: "slice2_18_6"
  bottom: "slice2_19_5"
  bottom: "slice2_20_4"
  bottom: "slice2_21_3"
  bottom: "slice2_22_2"
  bottom: "slice2_23_1"
  bottom: "slice2_24_64"
  bottom: "slice2_25_63"
  bottom: "slice2_26_62"
  bottom: "slice2_27_61"
  bottom: "slice2_28_60"
  bottom: "slice2_29_59"
  bottom: "slice2_30_58"
  bottom: "slice2_31_57"
  top: "concat1_23"
  concat_param {
    axis: 2
  }
}
layer {
  name: "concat1_24"
  type: "Concat"
  bottom: "slice2_1_24"
  bottom: "slice2_2_23"
  bottom: "slice2_3_22"
  bottom: "slice2_4_21"
  bottom: "slice2_5_20"
  bottom: "slice2_6_19"
  bottom: "slice2_7_18"
  bottom: "slice2_8_17"
  bottom: "slice2_9_16"
  bottom: "slice2_10_15"
  bottom: "slice2_11_14"
  bottom: "slice2_12_13"
  bottom: "slice2_13_12"
  bottom: "slice2_14_11"
  bottom: "slice2_15_10"
  bottom: "slice2_16_9"
  bottom: "slice2_17_8"
  bottom: "slice2_18_7"
  bottom: "slice2_19_6"
  bottom: "slice2_20_5"
  bottom: "slice2_21_4"
  bottom: "slice2_22_3"
  bottom: "slice2_23_2"
  bottom: "slice2_24_1"
  bottom: "slice2_25_64"
  bottom: "slice2_26_63"
  bottom: "slice2_27_62"
  bottom: "slice2_28_61"
  bottom: "slice2_29_60"
  bottom: "slice2_30_59"
  bottom: "slice2_31_58"
  top: "concat1_24"
  concat_param {
    axis: 2
  }
}
layer {
  name: "concat1_25"
  type: "Concat"
  bottom: "slice2_1_25"
  bottom: "slice2_2_24"
  bottom: "slice2_3_23"
  bottom: "slice2_4_22"
  bottom: "slice2_5_21"
  bottom: "slice2_6_20"
  bottom: "slice2_7_19"
  bottom: "slice2_8_18"
  bottom: "slice2_9_17"
  bottom: "slice2_10_16"
  bottom: "slice2_11_15"
  bottom: "slice2_12_14"
  bottom: "slice2_13_13"
  bottom: "slice2_14_12"
  bottom: "slice2_15_11"
  bottom: "slice2_16_10"
  bottom: "slice2_17_9"
  bottom: "slice2_18_8"
  bottom: "slice2_19_7"
  bottom: "slice2_20_6"
  bottom: "slice2_21_5"
  bottom: "slice2_22_4"
  bottom: "slice2_23_3"
  bottom: "slice2_24_2"
  bottom: "slice2_25_1"
  bottom: "slice2_26_64"
  bottom: "slice2_27_63"
  bottom: "slice2_28_62"
  bottom: "slice2_29_61"
  bottom: "slice2_30_60"
  bottom: "slice2_31_59"
  top: "concat1_25"
  concat_param {
    axis: 2
  }
}
layer {
  name: "concat1_26"
  type: "Concat"
  bottom: "slice2_1_26"
  bottom: "slice2_2_25"
  bottom: "slice2_3_24"
  bottom: "slice2_4_23"
  bottom: "slice2_5_22"
  bottom: "slice2_6_21"
  bottom: "slice2_7_20"
  bottom: "slice2_8_19"
  bottom: "slice2_9_18"
  bottom: "slice2_10_17"
  bottom: "slice2_11_16"
  bottom: "slice2_12_15"
  bottom: "slice2_13_14"
  bottom: "slice2_14_13"
  bottom: "slice2_15_12"
  bottom: "slice2_16_11"
  bottom: "slice2_17_10"
  bottom: "slice2_18_9"
  bottom: "slice2_19_8"
  bottom: "slice2_20_7"
  bottom: "slice2_21_6"
  bottom: "slice2_22_5"
  bottom: "slice2_23_4"
  bottom: "slice2_24_3"
  bottom: "slice2_25_2"
  bottom: "slice2_26_1"
  bottom: "slice2_27_64"
  bottom: "slice2_28_63"
  bottom: "slice2_29_62"
  bottom: "slice2_30_61"
  bottom: "slice2_31_60"
  top: "concat1_26"
  concat_param {
    axis: 2
  }
}
layer {
  name: "concat1_27"
  type: "Concat"
  bottom: "slice2_1_27"
  bottom: "slice2_2_26"
  bottom: "slice2_3_25"
  bottom: "slice2_4_24"
  bottom: "slice2_5_23"
  bottom: "slice2_6_22"
  bottom: "slice2_7_21"
  bottom: "slice2_8_20"
  bottom: "slice2_9_19"
  bottom: "slice2_10_18"
  bottom: "slice2_11_17"
  bottom: "slice2_12_16"
  bottom: "slice2_13_15"
  bottom: "slice2_14_14"
  bottom: "slice2_15_13"
  bottom: "slice2_16_12"
  bottom: "slice2_17_11"
  bottom: "slice2_18_10"
  bottom: "slice2_19_9"
  bottom: "slice2_20_8"
  bottom: "slice2_21_7"
  bottom: "slice2_22_6"
  bottom: "slice2_23_5"
  bottom: "slice2_24_4"
  bottom: "slice2_25_3"
  bottom: "slice2_26_2"
  bottom: "slice2_27_1"
  bottom: "slice2_28_64"
  bottom: "slice2_29_63"
  bottom: "slice2_30_62"
  bottom: "slice2_31_61"
  top: "concat1_27"
  concat_param {
    axis: 2
  }
}
layer {
  name: "concat1_28"
  type: "Concat"
  bottom: "slice2_1_28"
  bottom: "slice2_2_27"
  bottom: "slice2_3_26"
  bottom: "slice2_4_25"
  bottom: "slice2_5_24"
  bottom: "slice2_6_23"
  bottom: "slice2_7_22"
  bottom: "slice2_8_21"
  bottom: "slice2_9_20"
  bottom: "slice2_10_19"
  bottom: "slice2_11_18"
  bottom: "slice2_12_17"
  bottom: "slice2_13_16"
  bottom: "slice2_14_15"
  bottom: "slice2_15_14"
  bottom: "slice2_16_13"
  bottom: "slice2_17_12"
  bottom: "slice2_18_11"
  bottom: "slice2_19_10"
  bottom: "slice2_20_9"
  bottom: "slice2_21_8"
  bottom: "slice2_22_7"
  bottom: "slice2_23_6"
  bottom: "slice2_24_5"
  bottom: "slice2_25_4"
  bottom: "slice2_26_3"
  bottom: "slice2_27_2"
  bottom: "slice2_28_1"
  bottom: "slice2_29_64"
  bottom: "slice2_30_63"
  bottom: "slice2_31_62"
  top: "concat1_28"
  concat_param {
    axis: 2
  }
}
layer {
  name: "concat1_29"
  type: "Concat"
  bottom: "slice2_1_29"
  bottom: "slice2_2_28"
  bottom: "slice2_3_27"
  bottom: "slice2_4_26"
  bottom: "slice2_5_25"
  bottom: "slice2_6_24"
  bottom: "slice2_7_23"
  bottom: "slice2_8_22"
  bottom: "slice2_9_21"
  bottom: "slice2_10_20"
  bottom: "slice2_11_19"
  bottom: "slice2_12_18"
  bottom: "slice2_13_17"
  bottom: "slice2_14_16"
  bottom: "slice2_15_15"
  bottom: "slice2_16_14"
  bottom: "slice2_17_13"
  bottom: "slice2_18_12"
  bottom: "slice2_19_11"
  bottom: "slice2_20_10"
  bottom: "slice2_21_9"
  bottom: "slice2_22_8"
  bottom: "slice2_23_7"
  bottom: "slice2_24_6"
  bottom: "slice2_25_5"
  bottom: "slice2_26_4"
  bottom: "slice2_27_3"
  bottom: "slice2_28_2"
  bottom: "slice2_29_1"
  bottom: "slice2_30_64"
  bottom: "slice2_31_63"
  top: "concat1_29"
  concat_param {
    axis: 2
  }
}
layer {
  name: "concat1_30"
  type: "Concat"
  bottom: "slice2_1_30"
  bottom: "slice2_2_29"
  bottom: "slice2_3_28"
  bottom: "slice2_4_27"
  bottom: "slice2_5_26"
  bottom: "slice2_6_25"
  bottom: "slice2_7_24"
  bottom: "slice2_8_23"
  bottom: "slice2_9_22"
  bottom: "slice2_10_21"
  bottom: "slice2_11_20"
  bottom: "slice2_12_19"
  bottom: "slice2_13_18"
  bottom: "slice2_14_17"
  bottom: "slice2_15_16"
  bottom: "slice2_16_15"
  bottom: "slice2_17_14"
  bottom: "slice2_18_13"
  bottom: "slice2_19_12"
  bottom: "slice2_20_11"
  bottom: "slice2_21_10"
  bottom: "slice2_22_9"
  bottom: "slice2_23_8"
  bottom: "slice2_24_7"
  bottom: "slice2_25_6"
  bottom: "slice2_26_5"
  bottom: "slice2_27_4"
  bottom: "slice2_28_3"
  bottom: "slice2_29_2"
  bottom: "slice2_30_1"
  bottom: "slice2_31_64"
  top: "concat1_30"
  concat_param {
    axis: 2
  }
}
layer {
  name: "concat1_31"
  type: "Concat"
  bottom: "slice2_1_31"
  bottom: "slice2_2_30"
  bottom: "slice2_3_29"
  bottom: "slice2_4_28"
  bottom: "slice2_5_27"
  bottom: "slice2_6_26"
  bottom: "slice2_7_25"
  bottom: "slice2_8_24"
  bottom: "slice2_9_23"
  bottom: "slice2_10_22"
  bottom: "slice2_11_21"
  bottom: "slice2_12_20"
  bottom: "slice2_13_19"
  bottom: "slice2_14_18"
  bottom: "slice2_15_17"
  bottom: "slice2_16_16"
  bottom: "slice2_17_15"
  bottom: "slice2_18_14"
  bottom: "slice2_19_13"
  bottom: "slice2_20_12"
  bottom: "slice2_21_11"
  bottom: "slice2_22_10"
  bottom: "slice2_23_9"
  bottom: "slice2_24_8"
  bottom: "slice2_25_7"
  bottom: "slice2_26_6"
  bottom: "slice2_27_5"
  bottom: "slice2_28_4"
  bottom: "slice2_29_3"
  bottom: "slice2_30_2"
  bottom: "slice2_31_1"
  top: "concat1_31"
  concat_param {
    axis: 2
  }
}
layer {
  name: "concat1_32"
  type: "Concat"
  bottom: "slice2_1_32"
  bottom: "slice2_2_31"
  bottom: "slice2_3_30"
  bottom: "slice2_4_29"
  bottom: "slice2_5_28"
  bottom: "slice2_6_27"
  bottom: "slice2_7_26"
  bottom: "slice2_8_25"
  bottom: "slice2_9_24"
  bottom: "slice2_10_23"
  bottom: "slice2_11_22"
  bottom: "slice2_12_21"
  bottom: "slice2_13_20"
  bottom: "slice2_14_19"
  bottom: "slice2_15_18"
  bottom: "slice2_16_17"
  bottom: "slice2_17_16"
  bottom: "slice2_18_15"
  bottom: "slice2_19_14"
  bottom: "slice2_20_13"
  bottom: "slice2_21_12"
  bottom: "slice2_22_11"
  bottom: "slice2_23_10"
  bottom: "slice2_24_9"
  bottom: "slice2_25_8"
  bottom: "slice2_26_7"
  bottom: "slice2_27_6"
  bottom: "slice2_28_5"
  bottom: "slice2_29_4"
  bottom: "slice2_30_3"
  bottom: "slice2_31_2"
  top: "concat1_32"
  concat_param {
    axis: 2
  }
}
layer {
  name: "concat1_33"
  type: "Concat"
  bottom: "slice2_1_33"
  bottom: "slice2_2_32"
  bottom: "slice2_3_31"
  bottom: "slice2_4_30"
  bottom: "slice2_5_29"
  bottom: "slice2_6_28"
  bottom: "slice2_7_27"
  bottom: "slice2_8_26"
  bottom: "slice2_9_25"
  bottom: "slice2_10_24"
  bottom: "slice2_11_23"
  bottom: "slice2_12_22"
  bottom: "slice2_13_21"
  bottom: "slice2_14_20"
  bottom: "slice2_15_19"
  bottom: "slice2_16_18"
  bottom: "slice2_17_17"
  bottom: "slice2_18_16"
  bottom: "slice2_19_15"
  bottom: "slice2_20_14"
  bottom: "slice2_21_13"
  bottom: "slice2_22_12"
  bottom: "slice2_23_11"
  bottom: "slice2_24_10"
  bottom: "slice2_25_9"
  bottom: "slice2_26_8"
  bottom: "slice2_27_7"
  bottom: "slice2_28_6"
  bottom: "slice2_29_5"
  bottom: "slice2_30_4"
  bottom: "slice2_31_3"
  top: "concat1_33"
  concat_param {
    axis: 2
  }
}
layer {
  name: "concat1_34"
  type: "Concat"
  bottom: "slice2_1_34"
  bottom: "slice2_2_33"
  bottom: "slice2_3_32"
  bottom: "slice2_4_31"
  bottom: "slice2_5_30"
  bottom: "slice2_6_29"
  bottom: "slice2_7_28"
  bottom: "slice2_8_27"
  bottom: "slice2_9_26"
  bottom: "slice2_10_25"
  bottom: "slice2_11_24"
  bottom: "slice2_12_23"
  bottom: "slice2_13_22"
  bottom: "slice2_14_21"
  bottom: "slice2_15_20"
  bottom: "slice2_16_19"
  bottom: "slice2_17_18"
  bottom: "slice2_18_17"
  bottom: "slice2_19_16"
  bottom: "slice2_20_15"
  bottom: "slice2_21_14"
  bottom: "slice2_22_13"
  bottom: "slice2_23_12"
  bottom: "slice2_24_11"
  bottom: "slice2_25_10"
  bottom: "slice2_26_9"
  bottom: "slice2_27_8"
  bottom: "slice2_28_7"
  bottom: "slice2_29_6"
  bottom: "slice2_30_5"
  bottom: "slice2_31_4"
  top: "concat1_34"
  concat_param {
    axis: 2
  }
}
layer {
  name: "concat1_35"
  type: "Concat"
  bottom: "slice2_1_35"
  bottom: "slice2_2_34"
  bottom: "slice2_3_33"
  bottom: "slice2_4_32"
  bottom: "slice2_5_31"
  bottom: "slice2_6_30"
  bottom: "slice2_7_29"
  bottom: "slice2_8_28"
  bottom: "slice2_9_27"
  bottom: "slice2_10_26"
  bottom: "slice2_11_25"
  bottom: "slice2_12_24"
  bottom: "slice2_13_23"
  bottom: "slice2_14_22"
  bottom: "slice2_15_21"
  bottom: "slice2_16_20"
  bottom: "slice2_17_19"
  bottom: "slice2_18_18"
  bottom: "slice2_19_17"
  bottom: "slice2_20_16"
  bottom: "slice2_21_15"
  bottom: "slice2_22_14"
  bottom: "slice2_23_13"
  bottom: "slice2_24_12"
  bottom: "slice2_25_11"
  bottom: "slice2_26_10"
  bottom: "slice2_27_9"
  bottom: "slice2_28_8"
  bottom: "slice2_29_7"
  bottom: "slice2_30_6"
  bottom: "slice2_31_5"
  top: "concat1_35"
  concat_param {
    axis: 2
  }
}
layer {
  name: "concat1_36"
  type: "Concat"
  bottom: "slice2_1_36"
  bottom: "slice2_2_35"
  bottom: "slice2_3_34"
  bottom: "slice2_4_33"
  bottom: "slice2_5_32"
  bottom: "slice2_6_31"
  bottom: "slice2_7_30"
  bottom: "slice2_8_29"
  bottom: "slice2_9_28"
  bottom: "slice2_10_27"
  bottom: "slice2_11_26"
  bottom: "slice2_12_25"
  bottom: "slice2_13_24"
  bottom: "slice2_14_23"
  bottom: "slice2_15_22"
  bottom: "slice2_16_21"
  bottom: "slice2_17_20"
  bottom: "slice2_18_19"
  bottom: "slice2_19_18"
  bottom: "slice2_20_17"
  bottom: "slice2_21_16"
  bottom: "slice2_22_15"
  bottom: "slice2_23_14"
  bottom: "slice2_24_13"
  bottom: "slice2_25_12"
  bottom: "slice2_26_11"
  bottom: "slice2_27_10"
  bottom: "slice2_28_9"
  bottom: "slice2_29_8"
  bottom: "slice2_30_7"
  bottom: "slice2_31_6"
  top: "concat1_36"
  concat_param {
    axis: 2
  }
}
layer {
  name: "concat1_37"
  type: "Concat"
  bottom: "slice2_1_37"
  bottom: "slice2_2_36"
  bottom: "slice2_3_35"
  bottom: "slice2_4_34"
  bottom: "slice2_5_33"
  bottom: "slice2_6_32"
  bottom: "slice2_7_31"
  bottom: "slice2_8_30"
  bottom: "slice2_9_29"
  bottom: "slice2_10_28"
  bottom: "slice2_11_27"
  bottom: "slice2_12_26"
  bottom: "slice2_13_25"
  bottom: "slice2_14_24"
  bottom: "slice2_15_23"
  bottom: "slice2_16_22"
  bottom: "slice2_17_21"
  bottom: "slice2_18_20"
  bottom: "slice2_19_19"
  bottom: "slice2_20_18"
  bottom: "slice2_21_17"
  bottom: "slice2_22_16"
  bottom: "slice2_23_15"
  bottom: "slice2_24_14"
  bottom: "slice2_25_13"
  bottom: "slice2_26_12"
  bottom: "slice2_27_11"
  bottom: "slice2_28_10"
  bottom: "slice2_29_9"
  bottom: "slice2_30_8"
  bottom: "slice2_31_7"
  top: "concat1_37"
  concat_param {
    axis: 2
  }
}
layer {
  name: "concat1_38"
  type: "Concat"
  bottom: "slice2_1_38"
  bottom: "slice2_2_37"
  bottom: "slice2_3_36"
  bottom: "slice2_4_35"
  bottom: "slice2_5_34"
  bottom: "slice2_6_33"
  bottom: "slice2_7_32"
  bottom: "slice2_8_31"
  bottom: "slice2_9_30"
  bottom: "slice2_10_29"
  bottom: "slice2_11_28"
  bottom: "slice2_12_27"
  bottom: "slice2_13_26"
  bottom: "slice2_14_25"
  bottom: "slice2_15_24"
  bottom: "slice2_16_23"
  bottom: "slice2_17_22"
  bottom: "slice2_18_21"
  bottom: "slice2_19_20"
  bottom: "slice2_20_19"
  bottom: "slice2_21_18"
  bottom: "slice2_22_17"
  bottom: "slice2_23_16"
  bottom: "slice2_24_15"
  bottom: "slice2_25_14"
  bottom: "slice2_26_13"
  bottom: "slice2_27_12"
  bottom: "slice2_28_11"
  bottom: "slice2_29_10"
  bottom: "slice2_30_9"
  bottom: "slice2_31_8"
  top: "concat1_38"
  concat_param {
    axis: 2
  }
}
layer {
  name: "concat1_39"
  type: "Concat"
  bottom: "slice2_1_39"
  bottom: "slice2_2_38"
  bottom: "slice2_3_37"
  bottom: "slice2_4_36"
  bottom: "slice2_5_35"
  bottom: "slice2_6_34"
  bottom: "slice2_7_33"
  bottom: "slice2_8_32"
  bottom: "slice2_9_31"
  bottom: "slice2_10_30"
  bottom: "slice2_11_29"
  bottom: "slice2_12_28"
  bottom: "slice2_13_27"
  bottom: "slice2_14_26"
  bottom: "slice2_15_25"
  bottom: "slice2_16_24"
  bottom: "slice2_17_23"
  bottom: "slice2_18_22"
  bottom: "slice2_19_21"
  bottom: "slice2_20_20"
  bottom: "slice2_21_19"
  bottom: "slice2_22_18"
  bottom: "slice2_23_17"
  bottom: "slice2_24_16"
  bottom: "slice2_25_15"
  bottom: "slice2_26_14"
  bottom: "slice2_27_13"
  bottom: "slice2_28_12"
  bottom: "slice2_29_11"
  bottom: "slice2_30_10"
  bottom: "slice2_31_9"
  top: "concat1_39"
  concat_param {
    axis: 2
  }
}
layer {
  name: "concat1_40"
  type: "Concat"
  bottom: "slice2_1_40"
  bottom: "slice2_2_39"
  bottom: "slice2_3_38"
  bottom: "slice2_4_37"
  bottom: "slice2_5_36"
  bottom: "slice2_6_35"
  bottom: "slice2_7_34"
  bottom: "slice2_8_33"
  bottom: "slice2_9_32"
  bottom: "slice2_10_31"
  bottom: "slice2_11_30"
  bottom: "slice2_12_29"
  bottom: "slice2_13_28"
  bottom: "slice2_14_27"
  bottom: "slice2_15_26"
  bottom: "slice2_16_25"
  bottom: "slice2_17_24"
  bottom: "slice2_18_23"
  bottom: "slice2_19_22"
  bottom: "slice2_20_21"
  bottom: "slice2_21_20"
  bottom: "slice2_22_19"
  bottom: "slice2_23_18"
  bottom: "slice2_24_17"
  bottom: "slice2_25_16"
  bottom: "slice2_26_15"
  bottom: "slice2_27_14"
  bottom: "slice2_28_13"
  bottom: "slice2_29_12"
  bottom: "slice2_30_11"
  bottom: "slice2_31_10"
  top: "concat1_40"
  concat_param {
    axis: 2
  }
}
layer {
  name: "concat1_41"
  type: "Concat"
  bottom: "slice2_1_41"
  bottom: "slice2_2_40"
  bottom: "slice2_3_39"
  bottom: "slice2_4_38"
  bottom: "slice2_5_37"
  bottom: "slice2_6_36"
  bottom: "slice2_7_35"
  bottom: "slice2_8_34"
  bottom: "slice2_9_33"
  bottom: "slice2_10_32"
  bottom: "slice2_11_31"
  bottom: "slice2_12_30"
  bottom: "slice2_13_29"
  bottom: "slice2_14_28"
  bottom: "slice2_15_27"
  bottom: "slice2_16_26"
  bottom: "slice2_17_25"
  bottom: "slice2_18_24"
  bottom: "slice2_19_23"
  bottom: "slice2_20_22"
  bottom: "slice2_21_21"
  bottom: "slice2_22_20"
  bottom: "slice2_23_19"
  bottom: "slice2_24_18"
  bottom: "slice2_25_17"
  bottom: "slice2_26_16"
  bottom: "slice2_27_15"
  bottom: "slice2_28_14"
  bottom: "slice2_29_13"
  bottom: "slice2_30_12"
  bottom: "slice2_31_11"
  top: "concat1_41"
  concat_param {
    axis: 2
  }
}
layer {
  name: "concat1_42"
  type: "Concat"
  bottom: "slice2_1_42"
  bottom: "slice2_2_41"
  bottom: "slice2_3_40"
  bottom: "slice2_4_39"
  bottom: "slice2_5_38"
  bottom: "slice2_6_37"
  bottom: "slice2_7_36"
  bottom: "slice2_8_35"
  bottom: "slice2_9_34"
  bottom: "slice2_10_33"
  bottom: "slice2_11_32"
  bottom: "slice2_12_31"
  bottom: "slice2_13_30"
  bottom: "slice2_14_29"
  bottom: "slice2_15_28"
  bottom: "slice2_16_27"
  bottom: "slice2_17_26"
  bottom: "slice2_18_25"
  bottom: "slice2_19_24"
  bottom: "slice2_20_23"
  bottom: "slice2_21_22"
  bottom: "slice2_22_21"
  bottom: "slice2_23_20"
  bottom: "slice2_24_19"
  bottom: "slice2_25_18"
  bottom: "slice2_26_17"
  bottom: "slice2_27_16"
  bottom: "slice2_28_15"
  bottom: "slice2_29_14"
  bottom: "slice2_30_13"
  bottom: "slice2_31_12"
  top: "concat1_42"
  concat_param {
    axis: 2
  }
}
layer {
  name: "concat1_43"
  type: "Concat"
  bottom: "slice2_1_43"
  bottom: "slice2_2_42"
  bottom: "slice2_3_41"
  bottom: "slice2_4_40"
  bottom: "slice2_5_39"
  bottom: "slice2_6_38"
  bottom: "slice2_7_37"
  bottom: "slice2_8_36"
  bottom: "slice2_9_35"
  bottom: "slice2_10_34"
  bottom: "slice2_11_33"
  bottom: "slice2_12_32"
  bottom: "slice2_13_31"
  bottom: "slice2_14_30"
  bottom: "slice2_15_29"
  bottom: "slice2_16_28"
  bottom: "slice2_17_27"
  bottom: "slice2_18_26"
  bottom: "slice2_19_25"
  bottom: "slice2_20_24"
  bottom: "slice2_21_23"
  bottom: "slice2_22_22"
  bottom: "slice2_23_21"
  bottom: "slice2_24_20"
  bottom: "slice2_25_19"
  bottom: "slice2_26_18"
  bottom: "slice2_27_17"
  bottom: "slice2_28_16"
  bottom: "slice2_29_15"
  bottom: "slice2_30_14"
  bottom: "slice2_31_13"
  top: "concat1_43"
  concat_param {
    axis: 2
  }
}
layer {
  name: "concat1_44"
  type: "Concat"
  bottom: "slice2_1_44"
  bottom: "slice2_2_43"
  bottom: "slice2_3_42"
  bottom: "slice2_4_41"
  bottom: "slice2_5_40"
  bottom: "slice2_6_39"
  bottom: "slice2_7_38"
  bottom: "slice2_8_37"
  bottom: "slice2_9_36"
  bottom: "slice2_10_35"
  bottom: "slice2_11_34"
  bottom: "slice2_12_33"
  bottom: "slice2_13_32"
  bottom: "slice2_14_31"
  bottom: "slice2_15_30"
  bottom: "slice2_16_29"
  bottom: "slice2_17_28"
  bottom: "slice2_18_27"
  bottom: "slice2_19_26"
  bottom: "slice2_20_25"
  bottom: "slice2_21_24"
  bottom: "slice2_22_23"
  bottom: "slice2_23_22"
  bottom: "slice2_24_21"
  bottom: "slice2_25_20"
  bottom: "slice2_26_19"
  bottom: "slice2_27_18"
  bottom: "slice2_28_17"
  bottom: "slice2_29_16"
  bottom: "slice2_30_15"
  bottom: "slice2_31_14"
  top: "concat1_44"
  concat_param {
    axis: 2
  }
}
layer {
  name: "concat1_45"
  type: "Concat"
  bottom: "slice2_1_45"
  bottom: "slice2_2_44"
  bottom: "slice2_3_43"
  bottom: "slice2_4_42"
  bottom: "slice2_5_41"
  bottom: "slice2_6_40"
  bottom: "slice2_7_39"
  bottom: "slice2_8_38"
  bottom: "slice2_9_37"
  bottom: "slice2_10_36"
  bottom: "slice2_11_35"
  bottom: "slice2_12_34"
  bottom: "slice2_13_33"
  bottom: "slice2_14_32"
  bottom: "slice2_15_31"
  bottom: "slice2_16_30"
  bottom: "slice2_17_29"
  bottom: "slice2_18_28"
  bottom: "slice2_19_27"
  bottom: "slice2_20_26"
  bottom: "slice2_21_25"
  bottom: "slice2_22_24"
  bottom: "slice2_23_23"
  bottom: "slice2_24_22"
  bottom: "slice2_25_21"
  bottom: "slice2_26_20"
  bottom: "slice2_27_19"
  bottom: "slice2_28_18"
  bottom: "slice2_29_17"
  bottom: "slice2_30_16"
  bottom: "slice2_31_15"
  top: "concat1_45"
  concat_param {
    axis: 2
  }
}
layer {
  name: "concat1_46"
  type: "Concat"
  bottom: "slice2_1_46"
  bottom: "slice2_2_45"
  bottom: "slice2_3_44"
  bottom: "slice2_4_43"
  bottom: "slice2_5_42"
  bottom: "slice2_6_41"
  bottom: "slice2_7_40"
  bottom: "slice2_8_39"
  bottom: "slice2_9_38"
  bottom: "slice2_10_37"
  bottom: "slice2_11_36"
  bottom: "slice2_12_35"
  bottom: "slice2_13_34"
  bottom: "slice2_14_33"
  bottom: "slice2_15_32"
  bottom: "slice2_16_31"
  bottom: "slice2_17_30"
  bottom: "slice2_18_29"
  bottom: "slice2_19_28"
  bottom: "slice2_20_27"
  bottom: "slice2_21_26"
  bottom: "slice2_22_25"
  bottom: "slice2_23_24"
  bottom: "slice2_24_23"
  bottom: "slice2_25_22"
  bottom: "slice2_26_21"
  bottom: "slice2_27_20"
  bottom: "slice2_28_19"
  bottom: "slice2_29_18"
  bottom: "slice2_30_17"
  bottom: "slice2_31_16"
  top: "concat1_46"
  concat_param {
    axis: 2
  }
}
layer {
  name: "concat1_47"
  type: "Concat"
  bottom: "slice2_1_47"
  bottom: "slice2_2_46"
  bottom: "slice2_3_45"
  bottom: "slice2_4_44"
  bottom: "slice2_5_43"
  bottom: "slice2_6_42"
  bottom: "slice2_7_41"
  bottom: "slice2_8_40"
  bottom: "slice2_9_39"
  bottom: "slice2_10_38"
  bottom: "slice2_11_37"
  bottom: "slice2_12_36"
  bottom: "slice2_13_35"
  bottom: "slice2_14_34"
  bottom: "slice2_15_33"
  bottom: "slice2_16_32"
  bottom: "slice2_17_31"
  bottom: "slice2_18_30"
  bottom: "slice2_19_29"
  bottom: "slice2_20_28"
  bottom: "slice2_21_27"
  bottom: "slice2_22_26"
  bottom: "slice2_23_25"
  bottom: "slice2_24_24"
  bottom: "slice2_25_23"
  bottom: "slice2_26_22"
  bottom: "slice2_27_21"
  bottom: "slice2_28_20"
  bottom: "slice2_29_19"
  bottom: "slice2_30_18"
  bottom: "slice2_31_17"
  top: "concat1_47"
  concat_param {
    axis: 2
  }
}
layer {
  name: "concat1_48"
  type: "Concat"
  bottom: "slice2_1_48"
  bottom: "slice2_2_47"
  bottom: "slice2_3_46"
  bottom: "slice2_4_45"
  bottom: "slice2_5_44"
  bottom: "slice2_6_43"
  bottom: "slice2_7_42"
  bottom: "slice2_8_41"
  bottom: "slice2_9_40"
  bottom: "slice2_10_39"
  bottom: "slice2_11_38"
  bottom: "slice2_12_37"
  bottom: "slice2_13_36"
  bottom: "slice2_14_35"
  bottom: "slice2_15_34"
  bottom: "slice2_16_33"
  bottom: "slice2_17_32"
  bottom: "slice2_18_31"
  bottom: "slice2_19_30"
  bottom: "slice2_20_29"
  bottom: "slice2_21_28"
  bottom: "slice2_22_27"
  bottom: "slice2_23_26"
  bottom: "slice2_24_25"
  bottom: "slice2_25_24"
  bottom: "slice2_26_23"
  bottom: "slice2_27_22"
  bottom: "slice2_28_21"
  bottom: "slice2_29_20"
  bottom: "slice2_30_19"
  bottom: "slice2_31_18"
  top: "concat1_48"
  concat_param {
    axis: 2
  }
}
layer {
  name: "concat1_49"
  type: "Concat"
  bottom: "slice2_1_49"
  bottom: "slice2_2_48"
  bottom: "slice2_3_47"
  bottom: "slice2_4_46"
  bottom: "slice2_5_45"
  bottom: "slice2_6_44"
  bottom: "slice2_7_43"
  bottom: "slice2_8_42"
  bottom: "slice2_9_41"
  bottom: "slice2_10_40"
  bottom: "slice2_11_39"
  bottom: "slice2_12_38"
  bottom: "slice2_13_37"
  bottom: "slice2_14_36"
  bottom: "slice2_15_35"
  bottom: "slice2_16_34"
  bottom: "slice2_17_33"
  bottom: "slice2_18_32"
  bottom: "slice2_19_31"
  bottom: "slice2_20_30"
  bottom: "slice2_21_29"
  bottom: "slice2_22_28"
  bottom: "slice2_23_27"
  bottom: "slice2_24_26"
  bottom: "slice2_25_25"
  bottom: "slice2_26_24"
  bottom: "slice2_27_23"
  bottom: "slice2_28_22"
  bottom: "slice2_29_21"
  bottom: "slice2_30_20"
  bottom: "slice2_31_19"
  top: "concat1_49"
  concat_param {
    axis: 2
  }
}
layer {
  name: "concat1_50"
  type: "Concat"
  bottom: "slice2_1_50"
  bottom: "slice2_2_49"
  bottom: "slice2_3_48"
  bottom: "slice2_4_47"
  bottom: "slice2_5_46"
  bottom: "slice2_6_45"
  bottom: "slice2_7_44"
  bottom: "slice2_8_43"
  bottom: "slice2_9_42"
  bottom: "slice2_10_41"
  bottom: "slice2_11_40"
  bottom: "slice2_12_39"
  bottom: "slice2_13_38"
  bottom: "slice2_14_37"
  bottom: "slice2_15_36"
  bottom: "slice2_16_35"
  bottom: "slice2_17_34"
  bottom: "slice2_18_33"
  bottom: "slice2_19_32"
  bottom: "slice2_20_31"
  bottom: "slice2_21_30"
  bottom: "slice2_22_29"
  bottom: "slice2_23_28"
  bottom: "slice2_24_27"
  bottom: "slice2_25_26"
  bottom: "slice2_26_25"
  bottom: "slice2_27_24"
  bottom: "slice2_28_23"
  bottom: "slice2_29_22"
  bottom: "slice2_30_21"
  bottom: "slice2_31_20"
  top: "concat1_50"
  concat_param {
    axis: 2
  }
}
layer {
  name: "concat1_51"
  type: "Concat"
  bottom: "slice2_1_51"
  bottom: "slice2_2_50"
  bottom: "slice2_3_49"
  bottom: "slice2_4_48"
  bottom: "slice2_5_47"
  bottom: "slice2_6_46"
  bottom: "slice2_7_45"
  bottom: "slice2_8_44"
  bottom: "slice2_9_43"
  bottom: "slice2_10_42"
  bottom: "slice2_11_41"
  bottom: "slice2_12_40"
  bottom: "slice2_13_39"
  bottom: "slice2_14_38"
  bottom: "slice2_15_37"
  bottom: "slice2_16_36"
  bottom: "slice2_17_35"
  bottom: "slice2_18_34"
  bottom: "slice2_19_33"
  bottom: "slice2_20_32"
  bottom: "slice2_21_31"
  bottom: "slice2_22_30"
  bottom: "slice2_23_29"
  bottom: "slice2_24_28"
  bottom: "slice2_25_27"
  bottom: "slice2_26_26"
  bottom: "slice2_27_25"
  bottom: "slice2_28_24"
  bottom: "slice2_29_23"
  bottom: "slice2_30_22"
  bottom: "slice2_31_21"
  top: "concat1_51"
  concat_param {
    axis: 2
  }
}
layer {
  name: "concat1_52"
  type: "Concat"
  bottom: "slice2_1_52"
  bottom: "slice2_2_51"
  bottom: "slice2_3_50"
  bottom: "slice2_4_49"
  bottom: "slice2_5_48"
  bottom: "slice2_6_47"
  bottom: "slice2_7_46"
  bottom: "slice2_8_45"
  bottom: "slice2_9_44"
  bottom: "slice2_10_43"
  bottom: "slice2_11_42"
  bottom: "slice2_12_41"
  bottom: "slice2_13_40"
  bottom: "slice2_14_39"
  bottom: "slice2_15_38"
  bottom: "slice2_16_37"
  bottom: "slice2_17_36"
  bottom: "slice2_18_35"
  bottom: "slice2_19_34"
  bottom: "slice2_20_33"
  bottom: "slice2_21_32"
  bottom: "slice2_22_31"
  bottom: "slice2_23_30"
  bottom: "slice2_24_29"
  bottom: "slice2_25_28"
  bottom: "slice2_26_27"
  bottom: "slice2_27_26"
  bottom: "slice2_28_25"
  bottom: "slice2_29_24"
  bottom: "slice2_30_23"
  bottom: "slice2_31_22"
  top: "concat1_52"
  concat_param {
    axis: 2
  }
}
layer {
  name: "concat1_53"
  type: "Concat"
  bottom: "slice2_1_53"
  bottom: "slice2_2_52"
  bottom: "slice2_3_51"
  bottom: "slice2_4_50"
  bottom: "slice2_5_49"
  bottom: "slice2_6_48"
  bottom: "slice2_7_47"
  bottom: "slice2_8_46"
  bottom: "slice2_9_45"
  bottom: "slice2_10_44"
  bottom: "slice2_11_43"
  bottom: "slice2_12_42"
  bottom: "slice2_13_41"
  bottom: "slice2_14_40"
  bottom: "slice2_15_39"
  bottom: "slice2_16_38"
  bottom: "slice2_17_37"
  bottom: "slice2_18_36"
  bottom: "slice2_19_35"
  bottom: "slice2_20_34"
  bottom: "slice2_21_33"
  bottom: "slice2_22_32"
  bottom: "slice2_23_31"
  bottom: "slice2_24_30"
  bottom: "slice2_25_29"
  bottom: "slice2_26_28"
  bottom: "slice2_27_27"
  bottom: "slice2_28_26"
  bottom: "slice2_29_25"
  bottom: "slice2_30_24"
  bottom: "slice2_31_23"
  top: "concat1_53"
  concat_param {
    axis: 2
  }
}
layer {
  name: "concat1_54"
  type: "Concat"
  bottom: "slice2_1_54"
  bottom: "slice2_2_53"
  bottom: "slice2_3_52"
  bottom: "slice2_4_51"
  bottom: "slice2_5_50"
  bottom: "slice2_6_49"
  bottom: "slice2_7_48"
  bottom: "slice2_8_47"
  bottom: "slice2_9_46"
  bottom: "slice2_10_45"
  bottom: "slice2_11_44"
  bottom: "slice2_12_43"
  bottom: "slice2_13_42"
  bottom: "slice2_14_41"
  bottom: "slice2_15_40"
  bottom: "slice2_16_39"
  bottom: "slice2_17_38"
  bottom: "slice2_18_37"
  bottom: "slice2_19_36"
  bottom: "slice2_20_35"
  bottom: "slice2_21_34"
  bottom: "slice2_22_33"
  bottom: "slice2_23_32"
  bottom: "slice2_24_31"
  bottom: "slice2_25_30"
  bottom: "slice2_26_29"
  bottom: "slice2_27_28"
  bottom: "slice2_28_27"
  bottom: "slice2_29_26"
  bottom: "slice2_30_25"
  bottom: "slice2_31_24"
  top: "concat1_54"
  concat_param {
    axis: 2
  }
}
layer {
  name: "concat1_55"
  type: "Concat"
  bottom: "slice2_1_55"
  bottom: "slice2_2_54"
  bottom: "slice2_3_53"
  bottom: "slice2_4_52"
  bottom: "slice2_5_51"
  bottom: "slice2_6_50"
  bottom: "slice2_7_49"
  bottom: "slice2_8_48"
  bottom: "slice2_9_47"
  bottom: "slice2_10_46"
  bottom: "slice2_11_45"
  bottom: "slice2_12_44"
  bottom: "slice2_13_43"
  bottom: "slice2_14_42"
  bottom: "slice2_15_41"
  bottom: "slice2_16_40"
  bottom: "slice2_17_39"
  bottom: "slice2_18_38"
  bottom: "slice2_19_37"
  bottom: "slice2_20_36"
  bottom: "slice2_21_35"
  bottom: "slice2_22_34"
  bottom: "slice2_23_33"
  bottom: "slice2_24_32"
  bottom: "slice2_25_31"
  bottom: "slice2_26_30"
  bottom: "slice2_27_29"
  bottom: "slice2_28_28"
  bottom: "slice2_29_27"
  bottom: "slice2_30_26"
  bottom: "slice2_31_25"
  top: "concat1_55"
  concat_param {
    axis: 2
  }
}
layer {
  name: "concat1_56"
  type: "Concat"
  bottom: "slice2_1_56"
  bottom: "slice2_2_55"
  bottom: "slice2_3_54"
  bottom: "slice2_4_53"
  bottom: "slice2_5_52"
  bottom: "slice2_6_51"
  bottom: "slice2_7_50"
  bottom: "slice2_8_49"
  bottom: "slice2_9_48"
  bottom: "slice2_10_47"
  bottom: "slice2_11_46"
  bottom: "slice2_12_45"
  bottom: "slice2_13_44"
  bottom: "slice2_14_43"
  bottom: "slice2_15_42"
  bottom: "slice2_16_41"
  bottom: "slice2_17_40"
  bottom: "slice2_18_39"
  bottom: "slice2_19_38"
  bottom: "slice2_20_37"
  bottom: "slice2_21_36"
  bottom: "slice2_22_35"
  bottom: "slice2_23_34"
  bottom: "slice2_24_33"
  bottom: "slice2_25_32"
  bottom: "slice2_26_31"
  bottom: "slice2_27_30"
  bottom: "slice2_28_29"
  bottom: "slice2_29_28"
  bottom: "slice2_30_27"
  bottom: "slice2_31_26"
  top: "concat1_56"
  concat_param {
    axis: 2
  }
}
layer {
  name: "concat1_57"
  type: "Concat"
  bottom: "slice2_1_57"
  bottom: "slice2_2_56"
  bottom: "slice2_3_55"
  bottom: "slice2_4_54"
  bottom: "slice2_5_53"
  bottom: "slice2_6_52"
  bottom: "slice2_7_51"
  bottom: "slice2_8_50"
  bottom: "slice2_9_49"
  bottom: "slice2_10_48"
  bottom: "slice2_11_47"
  bottom: "slice2_12_46"
  bottom: "slice2_13_45"
  bottom: "slice2_14_44"
  bottom: "slice2_15_43"
  bottom: "slice2_16_42"
  bottom: "slice2_17_41"
  bottom: "slice2_18_40"
  bottom: "slice2_19_39"
  bottom: "slice2_20_38"
  bottom: "slice2_21_37"
  bottom: "slice2_22_36"
  bottom: "slice2_23_35"
  bottom: "slice2_24_34"
  bottom: "slice2_25_33"
  bottom: "slice2_26_32"
  bottom: "slice2_27_31"
  bottom: "slice2_28_30"
  bottom: "slice2_29_29"
  bottom: "slice2_30_28"
  bottom: "slice2_31_27"
  top: "concat1_57"
  concat_param {
    axis: 2
  }
}
layer {
  name: "concat1_58"
  type: "Concat"
  bottom: "slice2_1_58"
  bottom: "slice2_2_57"
  bottom: "slice2_3_56"
  bottom: "slice2_4_55"
  bottom: "slice2_5_54"
  bottom: "slice2_6_53"
  bottom: "slice2_7_52"
  bottom: "slice2_8_51"
  bottom: "slice2_9_50"
  bottom: "slice2_10_49"
  bottom: "slice2_11_48"
  bottom: "slice2_12_47"
  bottom: "slice2_13_46"
  bottom: "slice2_14_45"
  bottom: "slice2_15_44"
  bottom: "slice2_16_43"
  bottom: "slice2_17_42"
  bottom: "slice2_18_41"
  bottom: "slice2_19_40"
  bottom: "slice2_20_39"
  bottom: "slice2_21_38"
  bottom: "slice2_22_37"
  bottom: "slice2_23_36"
  bottom: "slice2_24_35"
  bottom: "slice2_25_34"
  bottom: "slice2_26_33"
  bottom: "slice2_27_32"
  bottom: "slice2_28_31"
  bottom: "slice2_29_30"
  bottom: "slice2_30_29"
  bottom: "slice2_31_28"
  top: "concat1_58"
  concat_param {
    axis: 2
  }
}
layer {
  name: "concat1_59"
  type: "Concat"
  bottom: "slice2_1_59"
  bottom: "slice2_2_58"
  bottom: "slice2_3_57"
  bottom: "slice2_4_56"
  bottom: "slice2_5_55"
  bottom: "slice2_6_54"
  bottom: "slice2_7_53"
  bottom: "slice2_8_52"
  bottom: "slice2_9_51"
  bottom: "slice2_10_50"
  bottom: "slice2_11_49"
  bottom: "slice2_12_48"
  bottom: "slice2_13_47"
  bottom: "slice2_14_46"
  bottom: "slice2_15_45"
  bottom: "slice2_16_44"
  bottom: "slice2_17_43"
  bottom: "slice2_18_42"
  bottom: "slice2_19_41"
  bottom: "slice2_20_40"
  bottom: "slice2_21_39"
  bottom: "slice2_22_38"
  bottom: "slice2_23_37"
  bottom: "slice2_24_36"
  bottom: "slice2_25_35"
  bottom: "slice2_26_34"
  bottom: "slice2_27_33"
  bottom: "slice2_28_32"
  bottom: "slice2_29_31"
  bottom: "slice2_30_30"
  bottom: "slice2_31_29"
  top: "concat1_59"
  concat_param {
    axis: 2
  }
}
layer {
  name: "concat1_60"
  type: "Concat"
  bottom: "slice2_1_60"
  bottom: "slice2_2_59"
  bottom: "slice2_3_58"
  bottom: "slice2_4_57"
  bottom: "slice2_5_56"
  bottom: "slice2_6_55"
  bottom: "slice2_7_54"
  bottom: "slice2_8_53"
  bottom: "slice2_9_52"
  bottom: "slice2_10_51"
  bottom: "slice2_11_50"
  bottom: "slice2_12_49"
  bottom: "slice2_13_48"
  bottom: "slice2_14_47"
  bottom: "slice2_15_46"
  bottom: "slice2_16_45"
  bottom: "slice2_17_44"
  bottom: "slice2_18_43"
  bottom: "slice2_19_42"
  bottom: "slice2_20_41"
  bottom: "slice2_21_40"
  bottom: "slice2_22_39"
  bottom: "slice2_23_38"
  bottom: "slice2_24_37"
  bottom: "slice2_25_36"
  bottom: "slice2_26_35"
  bottom: "slice2_27_34"
  bottom: "slice2_28_33"
  bottom: "slice2_29_32"
  bottom: "slice2_30_31"
  bottom: "slice2_31_30"
  top: "concat1_60"
  concat_param {
    axis: 2
  }
}
layer {
  name: "concat1_61"
  type: "Concat"
  bottom: "slice2_1_61"
  bottom: "slice2_2_60"
  bottom: "slice2_3_59"
  bottom: "slice2_4_58"
  bottom: "slice2_5_57"
  bottom: "slice2_6_56"
  bottom: "slice2_7_55"
  bottom: "slice2_8_54"
  bottom: "slice2_9_53"
  bottom: "slice2_10_52"
  bottom: "slice2_11_51"
  bottom: "slice2_12_50"
  bottom: "slice2_13_49"
  bottom: "slice2_14_48"
  bottom: "slice2_15_47"
  bottom: "slice2_16_46"
  bottom: "slice2_17_45"
  bottom: "slice2_18_44"
  bottom: "slice2_19_43"
  bottom: "slice2_20_42"
  bottom: "slice2_21_41"
  bottom: "slice2_22_40"
  bottom: "slice2_23_39"
  bottom: "slice2_24_38"
  bottom: "slice2_25_37"
  bottom: "slice2_26_36"
  bottom: "slice2_27_35"
  bottom: "slice2_28_34"
  bottom: "slice2_29_33"
  bottom: "slice2_30_32"
  bottom: "slice2_31_31"
  top: "concat1_61"
  concat_param {
    axis: 2
  }
}
layer {
  name: "concat1_62"
  type: "Concat"
  bottom: "slice2_1_62"
  bottom: "slice2_2_61"
  bottom: "slice2_3_60"
  bottom: "slice2_4_59"
  bottom: "slice2_5_58"
  bottom: "slice2_6_57"
  bottom: "slice2_7_56"
  bottom: "slice2_8_55"
  bottom: "slice2_9_54"
  bottom: "slice2_10_53"
  bottom: "slice2_11_52"
  bottom: "slice2_12_51"
  bottom: "slice2_13_50"
  bottom: "slice2_14_49"
  bottom: "slice2_15_48"
  bottom: "slice2_16_47"
  bottom: "slice2_17_46"
  bottom: "slice2_18_45"
  bottom: "slice2_19_44"
  bottom: "slice2_20_43"
  bottom: "slice2_21_42"
  bottom: "slice2_22_41"
  bottom: "slice2_23_40"
  bottom: "slice2_24_39"
  bottom: "slice2_25_38"
  bottom: "slice2_26_37"
  bottom: "slice2_27_36"
  bottom: "slice2_28_35"
  bottom: "slice2_29_34"
  bottom: "slice2_30_33"
  bottom: "slice2_31_32"
  top: "concat1_62"
  concat_param {
    axis: 2
  }
}
layer {
  name: "concat1_63"
  type: "Concat"
  bottom: "slice2_1_63"
  bottom: "slice2_2_62"
  bottom: "slice2_3_61"
  bottom: "slice2_4_60"
  bottom: "slice2_5_59"
  bottom: "slice2_6_58"
  bottom: "slice2_7_57"
  bottom: "slice2_8_56"
  bottom: "slice2_9_55"
  bottom: "slice2_10_54"
  bottom: "slice2_11_53"
  bottom: "slice2_12_52"
  bottom: "slice2_13_51"
  bottom: "slice2_14_50"
  bottom: "slice2_15_49"
  bottom: "slice2_16_48"
  bottom: "slice2_17_47"
  bottom: "slice2_18_46"
  bottom: "slice2_19_45"
  bottom: "slice2_20_44"
  bottom: "slice2_21_43"
  bottom: "slice2_22_42"
  bottom: "slice2_23_41"
  bottom: "slice2_24_40"
  bottom: "slice2_25_39"
  bottom: "slice2_26_38"
  bottom: "slice2_27_37"
  bottom: "slice2_28_36"
  bottom: "slice2_29_35"
  bottom: "slice2_30_34"
  bottom: "slice2_31_33"
  top: "concat1_63"
  concat_param {
    axis: 2
  }
}
layer {
  name: "concat1_64"
  type: "Concat"
  bottom: "slice2_1_64"
  bottom: "slice2_2_63"
  bottom: "slice2_3_62"
  bottom: "slice2_4_61"
  bottom: "slice2_5_60"
  bottom: "slice2_6_59"
  bottom: "slice2_7_58"
  bottom: "slice2_8_57"
  bottom: "slice2_9_56"
  bottom: "slice2_10_55"
  bottom: "slice2_11_54"
  bottom: "slice2_12_53"
  bottom: "slice2_13_52"
  bottom: "slice2_14_51"
  bottom: "slice2_15_50"
  bottom: "slice2_16_49"
  bottom: "slice2_17_48"
  bottom: "slice2_18_47"
  bottom: "slice2_19_46"
  bottom: "slice2_20_45"
  bottom: "slice2_21_44"
  bottom: "slice2_22_43"
  bottom: "slice2_23_42"
  bottom: "slice2_24_41"
  bottom: "slice2_25_40"
  bottom: "slice2_26_39"
  bottom: "slice2_27_38"
  bottom: "slice2_28_37"
  bottom: "slice2_29_36"
  bottom: "slice2_30_35"
  bottom: "slice2_31_34"
  top: "concat1_64"
  concat_param {
    axis: 2
  }
}
layer {
  name: "slice3_1"
  type: "Slice"
  bottom: "concat1_1"
  top: "slice3_1_1"
  top: "slice3_1_2"
  top: "slice3_1_3"
  top: "slice3_1_4"
  top: "slice3_1_5"
  top: "slice3_1_6"
  top: "slice3_1_7"
  top: "slice3_1_8"
  top: "slice3_1_9"
  top: "slice3_1_10"
  top: "slice3_1_11"
  top: "slice3_1_12"
  top: "slice3_1_13"
  top: "slice3_1_14"
  top: "slice3_1_15"
  top: "slice3_1_16"
  top: "slice3_1_17"
  top: "slice3_1_18"
  top: "slice3_1_19"
  top: "slice3_1_20"
  top: "slice3_1_21"
  top: "slice3_1_22"
  top: "slice3_1_23"
  top: "slice3_1_24"
  top: "slice3_1_25"
  top: "slice3_1_26"
  top: "slice3_1_27"
  top: "slice3_1_28"
  top: "slice3_1_29"
  top: "slice3_1_30"
  top: "slice3_1_31"
  top: "slice3_1_32"
  top: "slice3_1_33"
  top: "slice3_1_34"
  top: "slice3_1_35"
  top: "slice3_1_36"
  top: "slice3_1_37"
  top: "slice3_1_38"
  top: "slice3_1_39"
  top: "slice3_1_40"
  top: "slice3_1_41"
  top: "slice3_1_42"
  top: "slice3_1_43"
  top: "slice3_1_44"
  top: "slice3_1_45"
  top: "slice3_1_46"
  top: "slice3_1_47"
  top: "slice3_1_48"
  top: "slice3_1_49"
  top: "slice3_1_50"
  top: "slice3_1_51"
  top: "slice3_1_52"
  top: "slice3_1_53"
  top: "slice3_1_54"
  top: "slice3_1_55"
  top: "slice3_1_56"
  top: "slice3_1_57"
  top: "slice3_1_58"
  top: "slice3_1_59"
  top: "slice3_1_60"
  top: "slice3_1_61"
  top: "slice3_1_62"
  top: "slice3_1_63"
  top: "slice3_1_64"
  slice_param {
    axis: 3
    slice_point: 1
    slice_point: 2
    slice_point: 3
    slice_point: 4
    slice_point: 5
    slice_point: 6
    slice_point: 7
    slice_point: 8
    slice_point: 9
    slice_point: 10
    slice_point: 11
    slice_point: 12
    slice_point: 13
    slice_point: 14
    slice_point: 15
    slice_point: 16
    slice_point: 17
    slice_point: 18
    slice_point: 19
    slice_point: 20
    slice_point: 21
    slice_point: 22
    slice_point: 23
    slice_point: 24
    slice_point: 25
    slice_point: 26
    slice_point: 27
    slice_point: 28
    slice_point: 29
    slice_point: 30
    slice_point: 31
    slice_point: 32
    slice_point: 33
    slice_point: 34
    slice_point: 35
    slice_point: 36
    slice_point: 37
    slice_point: 38
    slice_point: 39
    slice_point: 40
    slice_point: 41
    slice_point: 42
    slice_point: 43
    slice_point: 44
    slice_point: 45
    slice_point: 46
    slice_point: 47
    slice_point: 48
    slice_point: 49
    slice_point: 50
    slice_point: 51
    slice_point: 52
    slice_point: 53
    slice_point: 54
    slice_point: 55
    slice_point: 56
    slice_point: 57
    slice_point: 58
    slice_point: 59
    slice_point: 60
    slice_point: 61
    slice_point: 62
    slice_point: 63
  }
}
layer {
  name: "slice3_2"
  type: "Slice"
  bottom: "concat1_2"
  top: "slice3_2_1"
  top: "slice3_2_2"
  top: "slice3_2_3"
  top: "slice3_2_4"
  top: "slice3_2_5"
  top: "slice3_2_6"
  top: "slice3_2_7"
  top: "slice3_2_8"
  top: "slice3_2_9"
  top: "slice3_2_10"
  top: "slice3_2_11"
  top: "slice3_2_12"
  top: "slice3_2_13"
  top: "slice3_2_14"
  top: "slice3_2_15"
  top: "slice3_2_16"
  top: "slice3_2_17"
  top: "slice3_2_18"
  top: "slice3_2_19"
  top: "slice3_2_20"
  top: "slice3_2_21"
  top: "slice3_2_22"
  top: "slice3_2_23"
  top: "slice3_2_24"
  top: "slice3_2_25"
  top: "slice3_2_26"
  top: "slice3_2_27"
  top: "slice3_2_28"
  top: "slice3_2_29"
  top: "slice3_2_30"
  top: "slice3_2_31"
  top: "slice3_2_32"
  top: "slice3_2_33"
  top: "slice3_2_34"
  top: "slice3_2_35"
  top: "slice3_2_36"
  top: "slice3_2_37"
  top: "slice3_2_38"
  top: "slice3_2_39"
  top: "slice3_2_40"
  top: "slice3_2_41"
  top: "slice3_2_42"
  top: "slice3_2_43"
  top: "slice3_2_44"
  top: "slice3_2_45"
  top: "slice3_2_46"
  top: "slice3_2_47"
  top: "slice3_2_48"
  top: "slice3_2_49"
  top: "slice3_2_50"
  top: "slice3_2_51"
  top: "slice3_2_52"
  top: "slice3_2_53"
  top: "slice3_2_54"
  top: "slice3_2_55"
  top: "slice3_2_56"
  top: "slice3_2_57"
  top: "slice3_2_58"
  top: "slice3_2_59"
  top: "slice3_2_60"
  top: "slice3_2_61"
  top: "slice3_2_62"
  top: "slice3_2_63"
  top: "slice3_2_64"
  slice_param {
    axis: 3
    slice_point: 1
    slice_point: 2
    slice_point: 3
    slice_point: 4
    slice_point: 5
    slice_point: 6
    slice_point: 7
    slice_point: 8
    slice_point: 9
    slice_point: 10
    slice_point: 11
    slice_point: 12
    slice_point: 13
    slice_point: 14
    slice_point: 15
    slice_point: 16
    slice_point: 17
    slice_point: 18
    slice_point: 19
    slice_point: 20
    slice_point: 21
    slice_point: 22
    slice_point: 23
    slice_point: 24
    slice_point: 25
    slice_point: 26
    slice_point: 27
    slice_point: 28
    slice_point: 29
    slice_point: 30
    slice_point: 31
    slice_point: 32
    slice_point: 33
    slice_point: 34
    slice_point: 35
    slice_point: 36
    slice_point: 37
    slice_point: 38
    slice_point: 39
    slice_point: 40
    slice_point: 41
    slice_point: 42
    slice_point: 43
    slice_point: 44
    slice_point: 45
    slice_point: 46
    slice_point: 47
    slice_point: 48
    slice_point: 49
    slice_point: 50
    slice_point: 51
    slice_point: 52
    slice_point: 53
    slice_point: 54
    slice_point: 55
    slice_point: 56
    slice_point: 57
    slice_point: 58
    slice_point: 59
    slice_point: 60
    slice_point: 61
    slice_point: 62
    slice_point: 63
  }
}
layer {
  name: "slice3_3"
  type: "Slice"
  bottom: "concat1_3"
  top: "slice3_3_1"
  top: "slice3_3_2"
  top: "slice3_3_3"
  top: "slice3_3_4"
  top: "slice3_3_5"
  top: "slice3_3_6"
  top: "slice3_3_7"
  top: "slice3_3_8"
  top: "slice3_3_9"
  top: "slice3_3_10"
  top: "slice3_3_11"
  top: "slice3_3_12"
  top: "slice3_3_13"
  top: "slice3_3_14"
  top: "slice3_3_15"
  top: "slice3_3_16"
  top: "slice3_3_17"
  top: "slice3_3_18"
  top: "slice3_3_19"
  top: "slice3_3_20"
  top: "slice3_3_21"
  top: "slice3_3_22"
  top: "slice3_3_23"
  top: "slice3_3_24"
  top: "slice3_3_25"
  top: "slice3_3_26"
  top: "slice3_3_27"
  top: "slice3_3_28"
  top: "slice3_3_29"
  top: "slice3_3_30"
  top: "slice3_3_31"
  top: "slice3_3_32"
  top: "slice3_3_33"
  top: "slice3_3_34"
  top: "slice3_3_35"
  top: "slice3_3_36"
  top: "slice3_3_37"
  top: "slice3_3_38"
  top: "slice3_3_39"
  top: "slice3_3_40"
  top: "slice3_3_41"
  top: "slice3_3_42"
  top: "slice3_3_43"
  top: "slice3_3_44"
  top: "slice3_3_45"
  top: "slice3_3_46"
  top: "slice3_3_47"
  top: "slice3_3_48"
  top: "slice3_3_49"
  top: "slice3_3_50"
  top: "slice3_3_51"
  top: "slice3_3_52"
  top: "slice3_3_53"
  top: "slice3_3_54"
  top: "slice3_3_55"
  top: "slice3_3_56"
  top: "slice3_3_57"
  top: "slice3_3_58"
  top: "slice3_3_59"
  top: "slice3_3_60"
  top: "slice3_3_61"
  top: "slice3_3_62"
  top: "slice3_3_63"
  top: "slice3_3_64"
  slice_param {
    axis: 3
    slice_point: 1
    slice_point: 2
    slice_point: 3
    slice_point: 4
    slice_point: 5
    slice_point: 6
    slice_point: 7
    slice_point: 8
    slice_point: 9
    slice_point: 10
    slice_point: 11
    slice_point: 12
    slice_point: 13
    slice_point: 14
    slice_point: 15
    slice_point: 16
    slice_point: 17
    slice_point: 18
    slice_point: 19
    slice_point: 20
    slice_point: 21
    slice_point: 22
    slice_point: 23
    slice_point: 24
    slice_point: 25
    slice_point: 26
    slice_point: 27
    slice_point: 28
    slice_point: 29
    slice_point: 30
    slice_point: 31
    slice_point: 32
    slice_point: 33
    slice_point: 34
    slice_point: 35
    slice_point: 36
    slice_point: 37
    slice_point: 38
    slice_point: 39
    slice_point: 40
    slice_point: 41
    slice_point: 42
    slice_point: 43
    slice_point: 44
    slice_point: 45
    slice_point: 46
    slice_point: 47
    slice_point: 48
    slice_point: 49
    slice_point: 50
    slice_point: 51
    slice_point: 52
    slice_point: 53
    slice_point: 54
    slice_point: 55
    slice_point: 56
    slice_point: 57
    slice_point: 58
    slice_point: 59
    slice_point: 60
    slice_point: 61
    slice_point: 62
    slice_point: 63
  }
}
layer {
  name: "slice3_4"
  type: "Slice"
  bottom: "concat1_4"
  top: "slice3_4_1"
  top: "slice3_4_2"
  top: "slice3_4_3"
  top: "slice3_4_4"
  top: "slice3_4_5"
  top: "slice3_4_6"
  top: "slice3_4_7"
  top: "slice3_4_8"
  top: "slice3_4_9"
  top: "slice3_4_10"
  top: "slice3_4_11"
  top: "slice3_4_12"
  top: "slice3_4_13"
  top: "slice3_4_14"
  top: "slice3_4_15"
  top: "slice3_4_16"
  top: "slice3_4_17"
  top: "slice3_4_18"
…
      type: "constant"
    }
  }
}
layer {
  name: "conv3_52"
  type: "Convolution"
  bottom: "concat6"
  top: "conv3_52"
  param {
    lr_mult: 1
  }
  param {
    lr_mult: 2
  }
  convolution_param {
    num_output: 31
    kernel_h: 64
    kernel_w: 3
    stride: 1
    pad_h: 0
    pad_w: 1
    weight_filler {
      type: "xavier"
    }
    bias_filler {
      type: "constant"
    }
  }
}
layer {
  name: "conv3_53"
  type: "Convolution"
  bottom: "concat6"
  top: "conv3_53"
  param {
    lr_mult: 1
  }
  param {
    lr_mult: 2
  }
  convolution_param {
    num_output: 31
    kernel_h: 64
    kernel_w: 3
    stride: 1
    pad_h: 0
    pad_w: 1
    weight_filler {
      type: "xavier"
    }
    bias_filler {
      type: "constant"
    }
  }
}
layer {
  name: "conv3_54"
  type: "Convolution"
  bottom: "concat6"
  top: "conv3_54"
  param {
    lr_mult: 1
  }
  param {
    lr_mult: 2
  }
  convolution_param {
    num_output: 31
    kernel_h: 64
    kernel_w: 3
    stride: 1
    pad_h: 0
    pad_w: 1
    weight_filler {
      type: "xavier"
    }
    bias_filler {
      type: "constant"
    }
  }
}
layer {
  name: "conv3_55"
  type: "Convolution"
  bottom: "concat6"
  top: "conv3_55"
  param {
    lr_mult: 1
  }
  param {
    lr_mult: 2
  }
  convolution_param {
    num_output: 31
    kernel_h: 64
    kernel_w: 3
    stride: 1
    pad_h: 0
    pad_w: 1
    weight_filler {
      type: "xavier"
    }
    bias_filler {
      type: "constant"
    }
  }
}
layer {
  name: "conv3_56"
  type: "Convolution"
  bottom: "concat6"
  top: "conv3_56"
  param {
    lr_mult: 1
  }
  param {
    lr_mult: 2
  }
  convolution_param {
    num_output: 31
    kernel_h: 64
    kernel_w: 3
    stride: 1
    pad_h: 0
    pad_w: 1
    weight_filler {
      type: "xavier"
    }
    bias_filler {
      type: "constant"
    }
  }
}
layer {
  name: "conv3_57"
  type: "Convolution"
  bottom: "concat6"
  top: "conv3_57"
  param {
    lr_mult: 1
  }
  param {
    lr_mult: 2
  }
  convolution_param {
    num_output: 31
    kernel_h: 64
    kernel_w: 3
    stride: 1
    pad_h: 0
    pad_w: 1
    weight_filler {
      type: "xavier"
    }
    bias_filler {
      type: "constant"
    }
  }
}
layer {
  name: "conv3_58"
  type: "Convolution"
  bottom: "concat6"
  top: "conv3_58"
  param {
    lr_mult: 1
  }
  param {
    lr_mult: 2
  }
  convolution_param {
    num_output: 31
    kernel_h: 64
    kernel_w: 3
    stride: 1
    pad_h: 0
    pad_w: 1
    weight_filler {
      type: "xavier"
    }
    bias_filler {
      type: "constant"
    }
  }
}
layer {
  name: "conv3_59"
  type: "Convolution"
  bottom: "concat6"
  top: "conv3_59"
  param {
    lr_mult: 1
  }
  param {
    lr_mult: 2
  }
  convolution_param {
    num_output: 31
    kernel_h: 64
    kernel_w: 3
    stride: 1
    pad_h: 0
    pad_w: 1
    weight_filler {
      type: "xavier"
    }
    bias_filler {
      type: "constant"
    }
  }
}
layer {
  name: "conv3_60"
  type: "Convolution"
  bottom: "concat6"
  top: "conv3_60"
  param {
    lr_mult: 1
  }
  param {
    lr_mult: 2
  }
  convolution_param {
    num_output: 31
    kernel_h: 64
    kernel_w: 3
    stride: 1
    pad_h: 0
    pad_w: 1
    weight_filler {
      type: "xavier"
    }
    bias_filler {
      type: "constant"
    }
  }
}
layer {
  name: "conv3_61"
  type: "Convolution"
  bottom: "concat6"
  top: "conv3_61"
  param {
    lr_mult: 1
  }
  param {
    lr_mult: 2
  }
  convolution_param {
    num_output: 31
    kernel_h: 64
    kernel_w: 3
    stride: 1
    pad_h: 0
    pad_w: 1
    weight_filler {
      type: "xavier"
    }
    bias_filler {
      type: "constant"
    }
  }
}
layer {
  name: "conv3_62"
  type: "Convolution"
  bottom: "concat6"
  top: "conv3_62"
  param {
    lr_mult: 1
  }
  param {
    lr_mult: 2
  }
  convolution_param {
    num_output: 31
    kernel_h: 64
    kernel_w: 3
    stride: 1
    pad_h: 0
    pad_w: 1
    weight_filler {
      type: "xavier"
    }
    bias_filler {
      type: "constant"
    }
  }
}
layer {
  name: "conv3_63"
  type: "Convolution"
  bottom: "concat6"
  top: "conv3_63"
  param {
    lr_mult: 1
  }
  param {
    lr_mult: 2
  }
  convolution_param {
    num_output: 31
    kernel_h: 64
    kernel_w: 3
    stride: 1
    pad_h: 0
    pad_w: 1
    weight_filler {
      type: "xavier"
    }
    bias_filler {
      type: "constant"
    }
  }
}
layer {
  name: "conv3_64"
  type: "Convolution"
  bottom: "concat6"
  top: "conv3_64"
  param {
    lr_mult: 1
  }
  param {
    lr_mult: 2
  }
  convolution_param {
    num_output: 31
    kernel_h: 64
    kernel_w: 3
    stride: 1
    pad_h: 0
    pad_w: 1
    weight_filler {
      type: "xavier"
    }
    bias_filler {
      type: "constant"
    }
  }
}
layer {
  name: "concat7"
  type: "Concat"
  bottom: "conv3_1"
  bottom: "conv3_2"
  bottom: "conv3_3"
  bottom: "conv3_4"
  bottom: "conv3_5"
  bottom: "conv3_6"
  bottom: "conv3_7"
  bottom: "conv3_8"
  bottom: "conv3_9"
  bottom: "conv3_10"
  bottom: "conv3_11"
  bottom: "conv3_12"
  bottom: "conv3_13"
  bottom: "conv3_14"
  bottom: "conv3_15"
  bottom: "conv3_16"
  bottom: "conv3_17"
  bottom: "conv3_18"
  bottom: "conv3_19"
  bottom: "conv3_20"
  bottom: "conv3_21"
  bottom: "conv3_22"
  bottom: "conv3_23"
  bottom: "conv3_24"
  bottom: "conv3_25"
  bottom: "conv3_26"
  bottom: "conv3_27"
  bottom: "conv3_28"
  bottom: "conv3_29"
  bottom: "conv3_30"
  bottom: "conv3_31"
  bottom: "conv3_32"
  bottom: "conv3_33"
  bottom: "conv3_34"
  bottom: "conv3_35"
  bottom: "conv3_36"
  bottom: "conv3_37"
  bottom: "conv3_38"
  bottom: "conv3_39"
  bottom: "conv3_40"
  bottom: "conv3_41"
  bottom: "conv3_42"
  bottom: "conv3_43"
  bottom: "conv3_44"
  bottom: "conv3_45"
  bottom: "conv3_46"
  bottom: "conv3_47"
  bottom: "conv3_48"
  bottom: "conv3_49"
  bottom: "conv3_50"
  bottom: "conv3_51"
  bottom: "conv3_52"
  bottom: "conv3_53"
  bottom: "conv3_54"
  bottom: "conv3_55"
  bottom: "conv3_56"
  bottom: "conv3_57"
  bottom: "conv3_58"
  bottom: "conv3_59"
  bottom: "conv3_60"
  bottom: "conv3_61"
  bottom: "conv3_62"
  bottom: "conv3_63"
  bottom: "conv3_64"
  top: "concat7"
  concat_param {
    axis: 2
  }
}
layer {
  name: "relu3"
  type: "ReLU"
  bottom: "concat7"
  top: "concat7"
}
layer {
  name: "slice6"
  type: "Slice"
  bottom: "concat7"
  top: "slice6_1"
  top: "slice6_2"
  top: "slice6_3"
  top: "slice6_4"
  top: "slice6_5"
  top: "slice6_6"
  top: "slice6_7"
  top: "slice6_8"
  top: "slice6_9"
  top: "slice6_10"
  top: "slice6_11"
  top: "slice6_12"
  top: "slice6_13"
  top: "slice6_14"
  top: "slice6_15"
  top: "slice6_16"
  top: "slice6_17"
  top: "slice6_18"
  top: "slice6_19"
  top: "slice6_20"
  top: "slice6_21"
  top: "slice6_22"
  top: "slice6_23"
  top: "slice6_24"
  top: "slice6_25"
  top: "slice6_26"
  top: "slice6_27"
  top: "slice6_28"
  top: "slice6_29"
  top: "slice6_30"
  top: "slice6_31"
  slice_param {
    axis: 1
    slice_point: 1
    slice_point: 2
    slice_point: 3
    slice_point: 4
    slice_point: 5
    slice_point: 6
    slice_point: 7
    slice_point: 8
    slice_point: 9
    slice_point: 10
    slice_point: 11
    slice_point: 12
    slice_point: 13
    slice_point: 14
    slice_point: 15
    slice_point: 16
    slice_point: 17
    slice_point: 18
    slice_point: 19
    slice_point: 20
    slice_point: 21
    slice_point: 22
    slice_point: 23
    slice_point: 24
    slice_point: 25
    slice_point: 26
    slice_point: 27
    slice_point: 28
    slice_point: 29
    slice_point: 30
  }
}
layer {
  name: "concat8_1"
  type: "Concat"
  bottom: "slice6_1"
  bottom: "slice6_2"
  top: "concat8_1"
  concat_param {
    axis: 1
  }
}
layer {
  name: "concat8_2"
  type: "Concat"
  bottom: "slice6_1"
  bottom: "slice6_2"
  bottom: "slice6_3"
  top: "concat8_2"
  concat_param {
    axis: 1
  }
}
layer {
  name: "concat8_3"
  type: "Concat"
  bottom: "slice6_2"
  bottom: "slice6_3"
  bottom: "slice6_4"
  top: "concat8_3"
  concat_param {
    axis: 1
  }
}
layer {
  name: "concat8_4"
  type: "Concat"
  bottom: "slice6_3"
  bottom: "slice6_4"
  bottom: "slice6_5"
  top: "concat8_4"
  concat_param {
    axis: 1
  }
}
layer {
  name: "concat8_5"
  type: "Concat"
  bottom: "slice6_4"
  bottom: "slice6_5"
  bottom: "slice6_6"
  top: "concat8_5"
  concat_param {
    axis: 1
  }
}
layer {
  name: "concat8_6"
  type: "Concat"
  bottom: "slice6_5"
  bottom: "slice6_6"
  bottom: "slice6_7"
  top: "concat8_6"
  concat_param {
    axis: 1
  }
}
layer {
  name: "concat8_7"
  type: "Concat"
  bottom: "slice6_6"
  bottom: "slice6_7"
  bottom: "slice6_8"
  top: "concat8_7"
  concat_param {
    axis: 1
  }
}
layer {
  name: "concat8_8"
  type: "Concat"
  bottom: "slice6_7"
  bottom: "slice6_8"
  bottom: "slice6_9"
  top: "concat8_8"
  concat_param {
    axis: 1
  }
}
layer {
  name: "concat8_9"
  type: "Concat"
  bottom: "slice6_8"
  bottom: "slice6_9"
  bottom: "slice6_10"
  top: "concat8_9"
  concat_param {
    axis: 1
  }
}
layer {
  name: "concat8_10"
  type: "Concat"
  bottom: "slice6_9"
  bottom: "slice6_10"
  bottom: "slice6_11"
  top: "concat8_10"
  concat_param {
    axis: 1
  }
}
layer {
  name: "concat8_11"
  type: "Concat"
  bottom: "slice6_10"
  bottom: "slice6_11"
  bottom: "slice6_12"
  top: "concat8_11"
  concat_param {
    axis: 1
  }
}
layer {
  name: "concat8_12"
  type: "Concat"
  bottom: "slice6_11"
  bottom: "slice6_12"
  bottom: "slice6_13"
  top: "concat8_12"
  concat_param {
    axis: 1
  }
}
layer {
  name: "concat8_13"
  type: "Concat"
  bottom: "slice6_12"
  bottom: "slice6_13"
  bottom: "slice6_14"
  top: "concat8_13"
  concat_param {
    axis: 1
  }
}
layer {
  name: "concat8_14"
  type: "Concat"
  bottom: "slice6_13"
  bottom: "slice6_14"
  bottom: "slice6_15"
  top: "concat8_14"
  concat_param {
    axis: 1
  }
}
layer {
  name: "concat8_15"
  type: "Concat"
  bottom: "slice6_14"
  bottom: "slice6_15"
  bottom: "slice6_16"
  top: "concat8_15"
  concat_param {
    axis: 1
  }
}
layer {
  name: "concat8_16"
  type: "Concat"
  bottom: "slice6_15"
  bottom: "slice6_16"
  bottom: "slice6_17"
  top: "concat8_16"
  concat_param {
    axis: 1
  }
}
layer {
  name: "concat8_17"
  type: "Concat"
  bottom: "slice6_16"
  bottom: "slice6_17"
  bottom: "slice6_18"
  top: "concat8_17"
  concat_param {
    axis: 1
  }
}
layer {
  name: "concat8_18"
  type: "Concat"
  bottom: "slice6_17"
  bottom: "slice6_18"
  bottom: "slice6_19"
  top: "concat8_18"
  concat_param {
    axis: 1
  }
}
layer {
  name: "concat8_19"
  type: "Concat"
  bottom: "slice6_18"
  bottom: "slice6_19"
  bottom: "slice6_20"
  top: "concat8_19"
  concat_param {
    axis: 1
  }
}
layer {
  name: "concat8_20"
  type: "Concat"
  bottom: "slice6_19"
  bottom: "slice6_20"
  bottom: "slice6_21"
  top: "concat8_20"
  concat_param {
    axis: 1
  }
}
layer {
  name: "concat8_21"
  type: "Concat"
  bottom: "slice6_20"
  bottom: "slice6_21"
  bottom: "slice6_22"
  top: "concat8_21"
  concat_param {
    axis: 1
  }
}
layer {
  name: "concat8_22"
  type: "Concat"
  bottom: "slice6_21"
  bottom: "slice6_22"
  bottom: "slice6_23"
  top: "concat8_22"
  concat_param {
    axis: 1
  }
}
layer {
  name: "concat8_23"
  type: "Concat"
  bottom: "slice6_22"
  bottom: "slice6_23"
  bottom: "slice6_24"
  top: "concat8_23"
  concat_param {
    axis: 1
  }
}
layer {
  name: "concat8_24"
  type: "Concat"
  bottom: "slice6_23"
  bottom: "slice6_24"
  bottom: "slice6_25"
  top: "concat8_24"
  concat_param {
    axis: 1
  }
}
layer {
  name: "concat8_25"
  type: "Concat"
  bottom: "slice6_24"
  bottom: "slice6_25"
  bottom: "slice6_26"
  top: "concat8_25"
  concat_param {
    axis: 1
  }
}
layer {
  name: "concat8_26"
  type: "Concat"
  bottom: "slice6_25"
  bottom: "slice6_26"
  bottom: "slice6_27"
  top: "concat8_26"
  concat_param {
    axis: 1
  }
}
layer {
  name: "concat8_27"
  type: "Concat"
  bottom: "slice6_26"
  bottom: "slice6_27"
  bottom: "slice6_28"
  top: "concat8_27"
  concat_param {
    axis: 1
  }
}
layer {
  name: "concat8_28"
  type: "Concat"
  bottom: "slice6_27"
  bottom: "slice6_28"
  bottom: "slice6_29"
  top: "concat8_28"
  concat_param {
    axis: 1
  }
}
layer {
  name: "concat8_29"
  type: "Concat"
  bottom: "slice6_28"
  bottom: "slice6_29"
  bottom: "slice6_30"
  top: "concat8_29"
  concat_param {
    axis: 1
  }
}
layer {
  name: "concat8_30"
  type: "Concat"
  bottom: "slice6_29"
  bottom: "slice6_30"
  bottom: "slice6_31"
  top: "concat8_30"
  concat_param {
    axis: 1
  }
}
layer {
  name: "concat8_31"
  type: "Concat"
  bottom: "slice6_30"
  bottom: "slice6_31"
  top: "concat8_31"
  concat_param {
    axis: 1
  }
}
layer {
  name: "conv11_1"
  type: "Convolution"
  bottom: "concat8_1"
  top: "conv11_1"
  param {
    lr_mult: 1
  }
  param {
    lr_mult: 2
  }
  convolution_param {
    num_output: 64
    kernel_size: 9
    stride: 1
    pad: 4
    weight_filler {
      type: "xavier"
    }
    bias_filler {
      type: "constant"
    }
  }
}
layer {
  name: "relu11_1"
  type: "ReLU"
  bottom: "conv11_1"
  top: "conv11_1"
}
layer {
  name: "conv11_2"
  type: "Convolution"
  bottom: "concat8_2"
  top: "conv11_2"
  param {
    lr_mult: 1
  }
  param {
    lr_mult: 2
  }
  convolution_param {
    num_output: 64
    kernel_size: 9
    stride: 1
    pad: 4
    weight_filler {
      type: "xavier"
    }
    bias_filler {
      type: "constant"
    }
  }
}
layer {
  name: "relu11_2"
  type: "ReLU"
  bottom: "conv11_2"
  top: "conv11_2"
}
layer {
  name: "conv11_3"
  type: "Convolution"
  bottom: "concat8_3"
  top: "conv11_3"
  param {
    lr_mult: 1
  }
  param {
    lr_mult: 2
  }
  convolution_param {
    num_output: 64
    kernel_size: 9
    stride: 1
    pad: 4
    weight_filler {
      type: "xavier"
    }
    bias_filler {
      type: "constant"
    }
  }
}
layer {
  name: "relu11_3"
  type: "ReLU"
  bottom: "conv11_3"
  top: "conv11_3"
}
layer {
  name: "conv11_4"
  type: "Convolution"
  bottom: "concat8_4"
  top: "conv11_4"
  param {
    lr_mult: 1
  }
  param {
    lr_mult: 2
  }
  convolution_param {
    num_output: 64
    kernel_size: 9
    stride: 1
    pad: 4
    weight_filler {
      type: "xavier"
    }
    bias_filler {
      type: "constant"
    }
  }
}
layer {
  name: "relu11_4"
  type: "ReLU"
  bottom: "conv11_4"
  top: "conv11_4"
}
layer {
  name: "conv11_5"
  type: "Convolution"
  bottom: "concat8_5"
  top: "conv11_5"
  param {
    lr_mult: 1
  }
  param {
    lr_mult: 2
  }
  convolution_param {
    num_output: 64
    kernel_size: 9
    stride: 1
    pad: 4
    weight_filler {
      type: "xavier"
    }
    bias_filler {
      type: "constant"
    }
  }
}
layer {
  name: "relu11_5"
  type: "ReLU"
  bottom: "conv11_5"
  top: "conv11_5"
}
layer {
  name: "conv11_6"
  type: "Convolution"
  bottom: "concat8_6"
  top: "conv11_6"
  param {
    lr_mult: 1
  }
  param {
    lr_mult: 2
  }
  convolution_param {
    num_output: 64
    kernel_size: 9
    stride: 1
    pad: 4
    weight_filler {
      type: "xavier"
    }
    bias_filler {
      type: "constant"
    }
  }
}
layer {
  name: "relu11_6"
  type: "ReLU"
  bottom: "conv11_6"
  top: "conv11_6"
}
layer {
  name: "conv11_7"
  type: "Convolution"
  bottom: "concat8_7"
  top: "conv11_7"
  param {
    lr_mult: 1
  }
  param {
    lr_mult: 2
  }
  convolution_param {
    num_output: 64
    kernel_size: 9
    stride: 1
    pad: 4
    weight_filler {
      type: "xavier"
    }
    bias_filler {
      type: "constant"
    }
  }
}
layer {
  name: "relu11_7"
  type: "ReLU"
  bottom: "conv11_7"
  top: "conv11_7"
}
layer {
  name: "conv11_8"
  type: "Convolution"
  bottom: "concat8_8"
  top: "conv11_8"
  param {
    lr_mult: 1
  }
  param {
    lr_mult: 2
  }
  convolution_param {
    num_output: 64
    kernel_size: 9
    stride: 1
    pad: 4
    weight_filler {
      type: "xavier"
    }
    bias_filler {
      type: "constant"
    }
  }
}
layer {
  name: "relu11_8"
  type: "ReLU"
  bottom: "conv11_8"
  top: "conv11_8"
}
layer {
  name: "conv11_9"
  type: "Convolution"
  bottom: "concat8_9"
  top: "conv11_9"
  param {
    lr_mult: 1
  }
  param {
    lr_mult: 2
  }
  convolution_param {
    num_output: 64
    kernel_size: 9
    stride: 1
    pad: 4
    weight_filler {
      type: "xavier"
    }
    bias_filler {
      type: "constant"
    }
  }
}
layer {
  name: "relu11_9"
  type: "ReLU"
  bottom: "conv11_9"
  top: "conv11_9"
}
layer {
  name: "conv11_10"
  type: "Convolution"
  bottom: "concat8_10"
  top: "conv11_10"
  param {
    lr_mult: 1
  }
  param {
    lr_mult: 2
  }
  convolution_param {
    num_output: 64
    kernel_size: 9
    stride: 1
    pad: 4
    weight_filler {
      type: "xavier"
    }
    bias_filler {
      type: "constant"
    }
  }
}
layer {
  name: "relu11_10"
  type: "ReLU"
  bottom: "conv11_10"
  top: "conv11_10"
}
layer {
  name: "conv11_11"
  type: "Convolution"
  bottom: "concat8_11"
  top: "conv11_11"
  param {
    lr_mult: 1
  }
  param {
    lr_mult: 2
  }
  convolution_param {
    num_output: 64
    kernel_size: 9
    stride: 1
    pad: 4
    weight_filler {
      type: "xavier"
    }
    bias_filler {
      type: "constant"
    }
  }
}
layer {
  name: "relu11_11"
  type: "ReLU"
  bottom: "conv11_11"
  top: "conv11_11"
}
layer {
  name: "conv11_12"
  type: "Convolution"
  bottom: "concat8_12"
  top: "conv11_12"
  param {
    lr_mult: 1
  }
  param {
    lr_mult: 2
  }
  convolution_param {
    num_output: 64
    kernel_size: 9
    stride: 1
    pad: 4
    weight_filler {
      type: "xavier"
    }
    bias_filler {
      type: "constant"
    }
  }
}
layer {
  name: "relu11_12"
  type: "ReLU"
  bottom: "conv11_12"
  top: "conv11_12"
}
layer {
  name: "conv11_13"
  type: "Convolution"
  bottom: "concat8_13"
  top: "conv11_13"
  param {
    lr_mult: 1
  }
  param {
    lr_mult: 2
  }
  convolution_param {
    num_output: 64
    kernel_size: 9
    stride: 1
    pad: 4
    weight_filler {
      type: "xavier"
    }
    bias_filler {
      type: "constant"
    }
  }
}
layer {
  name: "relu11_13"
  type: "ReLU"
  bottom: "conv11_13"
  top: "conv11_13"
}
layer {
  name: "conv11_14"
  type: "Convolution"
  bottom: "concat8_14"
  top: "conv11_14"
  param {
    lr_mult: 1
  }
  param {
    lr_mult: 2
  }
  convolution_param {
    num_output: 64
    kernel_size: 9
    stride: 1
    pad: 4
    weight_filler {
      type: "xavier"
    }
    bias_filler {
      type: "constant"
    }
  }
}
layer {
  name: "relu11_14"
  type: "ReLU"
  bottom: "conv11_14"
  top: "conv11_14"
}
layer {
  name: "conv11_15"
  type: "Convolution"
  bottom: "concat8_15"
  top: "conv11_15"
  param {
    lr_mult: 1
  }
  param {
    lr_mult: 2
  }
  convolution_param {
    num_output: 64
    kernel_size: 9
    stride: 1
    pad: 4
    weight_filler {
      type: "xavier"
    }
    bias_filler {
      type: "constant"
    }
  }
}
layer {
  name: "relu11_15"
  type: "ReLU"
  bottom: "conv11_15"
  top: "conv11_15"
}
layer {
  name: "conv11_16"
  type: "Convolution"
  bottom: "concat8_16"
  top: "conv11_16"
  param {
    lr_mult: 1
  }
  param {
    lr_mult: 2
  }
  convolution_param {
    num_output: 64
    kernel_size: 9
    stride: 1
    pad: 4
    weight_filler {
      type: "xavier"
    }
    bias_filler {
      type: "constant"
    }
  }
}
layer {
  name: "relu11_16"
  type: "ReLU"
  bottom: "conv11_16"
  top: "conv11_16"
}
layer {
  name: "conv11_17"
  type: "Convolution"
  bottom: "concat8_17"
  top: "conv11_17"
  param {
    lr_mult: 1
  }
  param {
    lr_mult: 2
  }
  convolution_param {
    num_output: 64
    kernel_size: 9
    stride: 1
    pad: 4
    weight_filler {
      type: "xavier"
    }
    bias_filler {
      type: "constant"
    }
  }
}
layer {
  name: "relu11_17"
  type: "ReLU"
  bottom: "conv11_17"
  top: "conv11_17"
}
layer {
  name: "conv11_18"
  type: "Convolution"
  bottom: "concat8_18"
  top: "conv11_18"
  param {
    lr_mult: 1
  }
  param {
    lr_mult: 2
  }
  convolution_param {
    num_output: 64
    kernel_size: 9
    stride: 1
    pad: 4
    weight_filler {
      type: "xavier"
    }
    bias_filler {
      type: "constant"
    }
  }
}
layer {
  name: "relu11_18"
  type: "ReLU"
  bottom: "conv11_18"
  top: "conv11_18"
}
layer {
  name: "conv11_19"
  type: "Convolution"
  bottom: "concat8_19"
  top: "conv11_19"
  param {
    lr_mult: 1
  }
  param {
    lr_mult: 2
  }
  convolution_param {
    num_output: 64
    kernel_size: 9
    stride: 1
    pad: 4
    weight_filler {
      type: "xavier"
    }
    bias_filler {
      type: "constant"
    }
  }
}
layer {
  name: "relu11_19"
  type: "ReLU"
  bottom: "conv11_19"
  top: "conv11_19"
}
layer {
  name: "conv11_20"
  type: "Convolution"
  bottom: "concat8_20"
  top: "conv11_20"
  param {
    lr_mult: 1
  }
  param {
    lr_mult: 2
  }
  convolution_param {
    num_output: 64
    kernel_size: 9
    stride: 1
    pad: 4
    weight_filler {
      type: "xavier"
    }
    bias_filler {
      type: "constant"
    }
  }
}
layer {
  name: "relu11_20"
  type: "ReLU"
  bottom: "conv11_20"
  top: "conv11_20"
}
layer {
  name: "conv11_21"
  type: "Convolution"
  bottom: "concat8_21"
  top: "conv11_21"
  param {
    lr_mult: 1
  }
  param {
    lr_mult: 2
  }
  convolution_param {
    num_output: 64
    kernel_size: 9
    stride: 1
    pad: 4
    weight_filler {
      type: "xavier"
    }
    bias_filler {
      type: "constant"
    }
  }
}
layer {
  name: "relu11_21"
  type: "ReLU"
  bottom: "conv11_21"
  top: "conv11_21"
}
layer {
  name: "conv11_22"
  type: "Convolution"
  bottom: "concat8_22"
  top: "conv11_22"
  param {
    lr_mult: 1
  }
  param {
    lr_mult: 2
  }
  convolution_param {
    num_output: 64
    kernel_size: 9
    stride: 1
    pad: 4
    weight_filler {
      type: "xavier"
    }
    bias_filler {
      type: "constant"
    }
  }
}
layer {
  name: "relu11_22"
  type: "ReLU"
  bottom: "conv11_22"
  top: "conv11_22"
}
layer {
  name: "conv11_23"
  type: "Convolution"
  bottom: "concat8_23"
  top: "conv11_23"
  param {
    lr_mult: 1
  }
  param {
    lr_mult: 2
  }
  convolution_param {
    num_output: 64
    kernel_size: 9
    stride: 1
    pad: 4
    weight_filler {
      type: "xavier"
    }
    bias_filler {
      type: "constant"
    }
  }
}
layer {
  name: "relu11_23"
  type: "ReLU"
  bottom: "conv11_23"
  top: "conv11_23"
}
layer {
  name: "conv11_24"
  type: "Convolution"
  bottom: "concat8_24"
  top: "conv11_24"
  param {
    lr_mult: 1
  }
  param {
    lr_mult: 2
  }
  convolution_param {
    num_output: 64
    kernel_size: 9
    stride: 1
    pad: 4
    weight_filler {
      type: "xavier"
    }
    bias_filler {
      type: "constant"
    }
  }
}
layer {
  name: "relu11_24"
  type: "ReLU"
  bottom: "conv11_24"
  top: "conv11_24"
}
layer {
  name: "conv11_25"
  type: "Convolution"
  bottom: "concat8_25"
  top: "conv11_25"
  param {
    lr_mult: 1
  }
  param {
    lr_mult: 2
  }
  convolution_param {
    num_output: 64
    kernel_size: 9
    stride: 1
    pad: 4
    weight_filler {
      type: "xavier"
    }
    bias_filler {
      type: "constant"
    }
  }
}
layer {
  name: "relu11_25"
  type: "ReLU"
  bottom: "conv11_25"
  top: "conv11_25"
}
layer {
  name: "conv11_26"
  type: "Convolution"
  bottom: "concat8_26"
  top: "conv11_26"
  param {
    lr_mult: 1
  }
  param {
    lr_mult: 2
  }
  convolution_param {
    num_output: 64
    kernel_size: 9
    stride: 1
    pad: 4
    weight_filler {
      type: "xavier"
    }
    bias_filler {
      type: "constant"
    }
  }
}
layer {
  name: "relu11_26"
  type: "ReLU"
  bottom: "conv11_26"
  top: "conv11_26"
}
layer {
  name: "conv11_27"
  type: "Convolution"
  bottom: "concat8_27"
  top: "conv11_27"
  param {
    lr_mult: 1
  }
  param {
    lr_mult: 2
  }
  convolution_param {
    num_output: 64
    kernel_size: 9
    stride: 1
    pad: 4
    weight_filler {
      type: "xavier"
    }
    bias_filler {
      type: "constant"
    }
  }
}
layer {
  name: "relu11_27"
  type: "ReLU"
  bottom: "conv11_27"
  top: "conv11_27"
}
layer {
  name: "conv11_28"
  type: "Convolution"
  bottom: "concat8_28"
  top: "conv11_28"
  param {
    lr_mult: 1
  }
  param {
    lr_mult: 2
  }
  convolution_param {
    num_output: 64
    kernel_size: 9
    stride: 1
    pad: 4
    weight_filler {
      type: "xavier"
    }
    bias_filler {
      type: "constant"
    }
  }
}
layer {
  name: "relu11_28"
  type: "ReLU"
  bottom: "conv11_28"
  top: "conv11_28"
}
layer {
  name: "conv11_29"
  type: "Convolution"
  bottom: "concat8_29"
  top: "conv11_29"
  param {
    lr_mult: 1
  }
  param {
    lr_mult: 2
  }
  convolution_param {
    num_output: 64
    kernel_size: 9
    stride: 1
    pad: 4
    weight_filler {
      type: "xavier"
    }
    bias_filler {
      type: "constant"
    }
  }
}
layer {
  name: "relu11_29"
  type: "ReLU"
  bottom: "conv11_29"
  top: "conv11_29"
}
layer {
  name: "conv11_30"
  type: "Convolution"
  bottom: "concat8_30"
  top: "conv11_30"
  param {
    lr_mult: 1
  }
  param {
    lr_mult: 2
  }
  convolution_param {
    num_output: 64
    kernel_size: 9
    stride: 1
    pad: 4
    weight_filler {
      type: "xavier"
    }
    bias_filler {
      type: "constant"
    }
  }
}
layer {
  name: "relu11_30"
  type: "ReLU"
  bottom: "conv11_30"
  top: "conv11_30"
}
layer {
  name: "conv11_31"
  type: "Convolution"
  bottom: "concat8_31"
  top: "conv11_31"
  param {
    lr_mult: 1
  }
  param {
    lr_mult: 2
  }
  convolution_param {
    num_output: 64
    kernel_size: 9
    stride: 1
    pad: 4
    weight_filler {
      type: "xavier"
    }
    bias_filler {
      type: "constant"
    }
  }
}
layer {
  name: "relu11_31"
  type: "ReLU"
  bottom: "conv11_31"
  top: "conv11_31"
}
layer {
  name: "conv12_1"
  type: "Convolution"
  bottom: "conv11_1"
  top: "conv12_1"
  param {
    lr_mult: 1
  }
  param {
    lr_mult: 2
  }
  convolution_param {
    num_output: 32
    kernel_size: 1
    stride: 1
    pad: 0
    weight_filler {
      type: "xavier"
    }
    bias_filler {
      type: "constant"
    }
  }
}
layer {
  name: "relu12_1"
  type: "ReLU"
  bottom: "conv12_1"
  top: "conv12_1"
}
layer {
  name: "conv12_2"
  type: "Convolution"
  bottom: "conv11_2"
  top: "conv12_2"
  param {
    lr_mult: 1
  }
  param {
    lr_mult: 2
  }
  convolution_param {
    num_output: 32
    kernel_size: 1
    stride: 1
    pad: 0
    weight_filler {
      type: "xavier"
    }
    bias_filler {
      type: "constant"
    }
  }
}
layer {
  name: "relu12_2"
  type: "ReLU"
  bottom: "conv12_2"
  top: "conv12_2"
}
layer {
  name: "conv12_3"
  type: "Convolution"
  bottom: "conv11_3"
  top: "conv12_3"
  param {
    lr_mult: 1
  }
  param {
    lr_mult: 2
  }
  convolution_param {
    num_output: 32
    kernel_size: 1
    stride: 1
    pad: 0
    weight_filler {
      type: "xavier"
    }
    bias_filler {
      type: "constant"
    }
  }
}
layer {
  name: "relu12_3"
  type: "ReLU"
  bottom: "conv12_3"
  top: "conv12_3"
}
layer {
  name: "conv12_4"
  type: "Convolution"
  bottom: "conv11_4"
  top: "conv12_4"
  param {
    lr_mult: 1
  }
  param {
    lr_mult: 2
  }
  convolution_param {
    num_output: 32
    kernel_size: 1
    stride: 1
    pad: 0
    weight_filler {
      type: "xavier"
    }
    bias_filler {
      type: "constant"
    }
  }
}
layer {
  name: "relu12_4"
  type: "ReLU"
  bottom: "conv12_4"
  top: "conv12_4"
}
layer {
  name: "conv12_5"
  type: "Convolution"
  bottom: "conv11_5"
  top: "conv12_5"
  param {
    lr_mult: 1
  }
  param {
    lr_mult: 2
  }
  convolution_param {
    num_output: 32
    kernel_size: 1
    stride: 1
    pad: 0
    weight_filler {
      type: "xavier"
    }
    bias_filler {
      type: "constant"
    }
  }
}
layer {
  name: "relu12_5"
  type: "ReLU"
  bottom: "conv12_5"
  top: "conv12_5"
}
layer {
  name: "conv12_6"
  type: "Convolution"
  bottom: "conv11_6"
  top: "conv12_6"
  param {
    lr_mult: 1
  }
  param {
    lr_mult: 2
  }
  convolution_param {
    num_output: 32
    kernel_size: 1
    stride: 1
    pad: 0
    weight_filler {
      type: "xavier"
    }
    bias_filler {
      type: "constant"
    }
  }
}
layer {
  name: "relu12_6"
  type: "ReLU"
  bottom: "conv12_6"
  top: "conv12_6"
}
layer {
  name: "conv12_7"
  type: "Convolution"
  bottom: "conv11_7"
  top: "conv12_7"
  param {
    lr_mult: 1
  }
  param {
    lr_mult: 2
  }
  convolution_param {
    num_output: 32
    kernel_size: 1
    stride: 1
    pad: 0
    weight_filler {
      type: "xavier"
    }
    bias_filler {
      type: "constant"
    }
  }
}
layer {
  name: "relu12_7"
  type: "ReLU"
  bottom: "conv12_7"
  top: "conv12_7"
}
layer {
  name: "conv12_8"
  type: "Convolution"
  bottom: "conv11_8"
  top: "conv12_8"
  param {
    lr_mult: 1
  }
  param {
    lr_mult: 2
  }
  convolution_param {
    num_output: 32
    kernel_size: 1
    stride: 1
    pad: 0
    weight_filler {
      type: "xavier"
    }
    bias_filler {
      type: "constant"
    }
  }
}
layer {
  name: "relu12_8"
  type: "ReLU"
  bottom: "conv12_8"
  top: "conv12_8"
}
layer {
  name: "conv12_9"
  type: "Convolution"
  bottom: "conv11_9"
  top: "conv12_9"
  param {
    lr_mult: 1
  }
  param {
    lr_mult: 2
  }
  convolution_param {
    num_output: 32
    kernel_size: 1
    stride: 1
    pad: 0
    weight_filler {
      type: "xavier"
    }
    bias_filler {
      type: "constant"
    }
  }
}
layer {
  name: "relu12_9"
  type: "ReLU"
  bottom: "conv12_9"
  top: "conv12_9"
}
layer {
  name: "conv12_10"
  type: "Convolution"
  bottom: "conv11_10"
  top: "conv12_10"
  param {
    lr_mult: 1
  }
  param {
    lr_mult: 2
  }
  convolution_param {
    num_output: 32
    kernel_size: 1
    stride: 1
    pad: 0
    weight_filler {
      type: "xavier"
    }
    bias_filler {
      type: "constant"
    }
  }
}
layer {
  name: "relu12_10"
  type: "ReLU"
  bottom: "conv12_10"
  top: "conv12_10"
}
layer {
  name: "conv12_11"
  type: "Convolution"
  bottom: "conv11_11"
  top: "conv12_11"
  param {
    lr_mult: 1
  }
  param {
    lr_mult: 2
  }
  convolution_param {
    num_output: 32
    kernel_size: 1
    stride: 1
    pad: 0
    weight_filler {
      type: "xavier"
    }
    bias_filler {
      type: "constant"
    }
  }
}
layer {
  name: "relu12_11"
  type: "ReLU"
  bottom: "conv12_11"
  top: "conv12_11"
}
layer {
  name: "conv12_12"
  type: "Convolution"
  bottom: "conv11_12"
  top: "conv12_12"
  param {
    lr_mult: 1
  }
  param {
    lr_mult: 2
  }
  convolution_param {
    num_output: 32
    kernel_size: 1
    stride: 1
    pad: 0
    weight_filler {
      type: "xavier"
    }
    bias_filler {
      type: "constant"
    }
  }
}
layer {
  name: "relu12_12"
  type: "ReLU"
  bottom: "conv12_12"
  top: "conv12_12"
}
layer {
  name: "conv12_13"
  type: "Convolution"
  bottom: "conv11_13"
  top: "conv12_13"
  param {
    lr_mult: 1
  }
  param {
    lr_mult: 2
  }
  convolution_param {
    num_output: 32
    kernel_size: 1
    stride: 1
    pad: 0
    weight_filler {
      type: "xavier"
    }
    bias_filler {
      type: "constant"
    }
  }
}
layer {
  name: "relu12_13"
  type: "ReLU"
  bottom: "conv12_13"
  top: "conv12_13"
}
layer {
  name: "conv12_14"
  type: "Convolution"
  bottom: "conv11_14"
  top: "conv12_14"
  param {
    lr_mult: 1
  }
  param {
    lr_mult: 2
  }
  convolution_param {
    num_output: 32
    kernel_size: 1
    stride: 1
    pad: 0
    weight_filler {
      type: "xavier"
    }
    bias_filler {
      type: "constant"
    }
  }
}
layer {
  name: "relu12_14"
  type: "ReLU"
  bottom: "conv12_14"
  top: "conv12_14"
}
layer {
  name: "conv12_15"
  type: "Convolution"
  bottom: "conv11_15"
  top: "conv12_15"
  param {
    lr_mult: 1
  }
  param {
    lr_mult: 2
  }
  convolution_param {
    num_output: 32
    kernel_size: 1
    stride: 1
    pad: 0
    weight_filler {
      type: "xavier"
    }
    bias_filler {
      type: "constant"
    }
  }
}
layer {
  name: "relu12_15"
  type: "ReLU"
  bottom: "conv12_15"
  top: "conv12_15"
}
layer {
  name: "conv12_16"
  type: "Convolution"
  bottom: "conv11_16"
  top: "conv12_16"
  param {
    lr_mult: 1
  }
  param {
    lr_mult: 2
  }
  convolution_param {
    num_output: 32
    kernel_size: 1
    stride: 1
    pad: 0
    weight_filler {
      type: "xavier"
    }
    bias_filler {
      type: "constant"
    }
  }
}
layer {
  name: "relu12_16"
  type: "ReLU"
  bottom: "conv12_16"
  top: "conv12_16"
}
layer {
  name: "conv12_17"
  type: "Convolution"
  bottom: "conv11_17"
  top: "conv12_17"
  param {
    lr_mult: 1
  }
  param {
    lr_mult: 2
  }
  convolution_param {
    num_output: 32
    kernel_size: 1
    stride: 1
    pad: 0
    weight_filler {
      type: "xavier"
    }
    bias_filler {
      type: "constant"
    }
  }
}
layer {
  name: "relu12_17"
  type: "ReLU"
  bottom: "conv12_17"
  top: "conv12_17"
}
layer {
  name: "conv12_18"
  type: "Convolution"
  bottom: "conv11_18"
  top: "conv12_18"
  param {
    lr_mult: 1
  }
  param {
    lr_mult: 2
  }
  convolution_param {
    num_output: 32
    kernel_size: 1
    stride: 1
    pad: 0
    weight_filler {
      type: "xavier"
    }
    bias_filler {
      type: "constant"
    }
  }
}
layer {
  name: "relu12_18"
  type: "ReLU"
  bottom: "conv12_18"
  top: "conv12_18"
}
layer {
  name: "conv12_19"
  type: "Convolution"
  bottom: "conv11_19"
  top: "conv12_19"
  param {
    lr_mult: 1
  }
  param {
    lr_mult: 2
  }
  convolution_param {
    num_output: 32
    kernel_size: 1
    stride: 1
    pad: 0
    weight_filler {
      type: "xavier"
    }
    bias_filler {
      type: "constant"
    }
  }
}
layer {
  name: "relu12_19"
  type: "ReLU"
  bottom: "conv12_19"
  top: "conv12_19"
}
layer {
  name: "conv12_20"
  type: "Convolution"
  bottom: "conv11_20"
  top: "conv12_20"
  param {
    lr_mult: 1
  }
  param {
    lr_mult: 2
  }
  convolution_param {
    num_output: 32
    kernel_size: 1
    stride: 1
    pad: 0
    weight_filler {
      type: "xavier"
    }
    bias_filler {
      type: "constant"
    }
  }
}
layer {
  name: "relu12_20"
  type: "ReLU"
  bottom: "conv12_20"
  top: "conv12_20"
}
layer {
  name: "conv12_21"
  type: "Convolution"
  bottom: "conv11_21"
  top: "conv12_21"
  param {
    lr_mult: 1
  }
  param {
    lr_mult: 2
  }
  convolution_param {
    num_output: 32
    kernel_size: 1
    stride: 1
    pad: 0
    weight_filler {
      type: "xavier"
    }
    bias_filler {
      type: "constant"
    }
  }
}
layer {
  name: "relu12_21"
  type: "ReLU"
  bottom: "conv12_21"
  top: "conv12_21"
}
layer {
  name: "conv12_22"
  type: "Convolution"
  bottom: "conv11_22"
  top: "conv12_22"
  param {
    lr_mult: 1
  }
  param {
    lr_mult: 2
  }
  convolution_param {
    num_output: 32
    kernel_size: 1
    stride: 1
    pad: 0
    weight_filler {
      type: "xavier"
    }
    bias_filler {
      type: "constant"
    }
  }
}
layer {
  name: "relu12_22"
  type: "ReLU"
  bottom: "conv12_22"
  top: "conv12_22"
}
layer {
  name: "conv12_23"
  type: "Convolution"
  bottom: "conv11_23"
  top: "conv12_23"
  param {
    lr_mult: 1
  }
  param {
    lr_mult: 2
  }
  convolution_param {
    num_output: 32
    kernel_size: 1
    stride: 1
    pad: 0
    weight_filler {
      type: "xavier"
    }
    bias_filler {
      type: "constant"
    }
  }
}
layer {
  name: "relu12_23"
  type: "ReLU"
  bottom: "conv12_23"
  top: "conv12_23"
}
layer {
  name: "conv12_24"
  type: "Convolution"
  bottom: "conv11_24"
  top: "conv12_24"
  param {
    lr_mult: 1
  }
  param {
    lr_mult: 2
  }
  convolution_param {
    num_output: 32
    kernel_size: 1
    stride: 1
    pad: 0
    weight_filler {
      type: "xavier"
    }
    bias_filler {
      type: "constant"
    }
  }
}
layer {
  name: "relu12_24"
  type: "ReLU"
  bottom: "conv12_24"
  top: "conv12_24"
}
layer {
  name: "conv12_25"
  type: "Convolution"
  bottom: "conv11_25"
  top: "conv12_25"
  param {
    lr_mult: 1
  }
  param {
    lr_mult: 2
  }
  convolution_param {
    num_output: 32
    kernel_size: 1
    stride: 1
    pad: 0
    weight_filler {
      type: "xavier"
    }
    bias_filler {
      type: "constant"
    }
  }
}
layer {
  name: "relu12_25"
  type: "ReLU"
  bottom: "conv12_25"
  top: "conv12_25"
}
layer {
  name: "conv12_26"
  type: "Convolution"
  bottom: "conv11_26"
  top: "conv12_26"
  param {
    lr_mult: 1
  }
  param {
    lr_mult: 2
  }
  convolution_param {
    num_output: 32
    kernel_size: 1
    stride: 1
    pad: 0
    weight_filler {
      type: "xavier"
    }
    bias_filler {
      type: "constant"
    }
  }
}
layer {
  name: "relu12_26"
  type: "ReLU"
  bottom: "conv12_26"
  top: "conv12_26"
}
layer {
  name: "conv12_27"
  type: "Convolution"
  bottom: "conv11_27"
  top: "conv12_27"
  param {
    lr_mult: 1
  }
  param {
    lr_mult: 2
  }
  convolution_param {
    num_output: 32
    kernel_size: 1
    stride: 1
    pad: 0
    weight_filler {
      type: "xavier"
    }
    bias_filler {
      type: "constant"
    }
  }
}
layer {
  name: "relu12_27"
  type: "ReLU"
  bottom: "conv12_27"
  top: "conv12_27"
}
layer {
  name: "conv12_28"
  type: "Convolution"
  bottom: "conv11_28"
  top: "conv12_28"
  param {
    lr_mult: 1
  }
  param {
    lr_mult: 2
  }
  convolution_param {
    num_output: 32
    kernel_size: 1
    stride: 1
    pad: 0
    weight_filler {
      type: "xavier"
    }
    bias_filler {
      type: "constant"
    }
  }
}
layer {
  name: "relu12_28"
  type: "ReLU"
  bottom: "conv12_28"
  top: "conv12_28"
}
layer {
  name: "conv12_29"
  type: "Convolution"
  bottom: "conv11_29"
  top: "conv12_29"
  param {
    lr_mult: 1
  }
  param {
    lr_mult: 2
  }
  convolution_param {
    num_output: 32
    kernel_size: 1
    stride: 1
    pad: 0
    weight_filler {
      type: "xavier"
    }
    bias_filler {
      type: "constant"
    }
  }
}
layer {
  name: "relu12_29"
  type: "ReLU"
  bottom: "conv12_29"
  top: "conv12_29"
}
layer {
  name: "conv12_30"
  type: "Convolution"
  bottom: "conv11_30"
  top: "conv12_30"
  param {
    lr_mult: 1
  }
  param {
    lr_mult: 2
  }
  convolution_param {
    num_output: 32
    kernel_size: 1
    stride: 1
    pad: 0
    weight_filler {
      type: "xavier"
    }
    bias_filler {
      type: "constant"
    }
  }
}
layer {
  name: "relu12_30"
  type: "ReLU"
  bottom: "conv12_30"
  top: "conv12_30"
}
layer {
  name: "conv12_31"
  type: "Convolution"
  bottom: "conv11_31"
  top: "conv12_31"
  param {
    lr_mult: 1
  }
  param {
    lr_mult: 2
  }
  convolution_param {
    num_output: 32
    kernel_size: 1
    stride: 1
    pad: 0
    weight_filler {
      type: "xavier"
    }
    bias_filler {
      type: "constant"
    }
  }
}
layer {
  name: "relu12_31"
  type: "ReLU"
  bottom: "conv12_31"
  top: "conv12_31"
}
layer {
  name: "conv13_1"
  type: "Convolution"
  bottom: "conv12_1"
  top: "conv13_1"
  param {
    lr_mult: 1
  }
  param {
    lr_mult: 2
  }
  convolution_param {
    num_output: 1
    kernel_size: 5
    stride: 1
    pad: 2
    weight_filler {
      type: "xavier"
    }
    bias_filler {
      type: "constant"
    }
  }
}
layer {
  name: "conv13_2"
  type: "Convolution"
  bottom: "conv12_2"
  top: "conv13_2"
  param {
    lr_mult: 1
  }
  param {
    lr_mult: 2
  }
  convolution_param {
    num_output: 1
    kernel_size: 5
    stride: 1
    pad: 2
    weight_filler {
      type: "xavier"
    }
    bias_filler {
      type: "constant"
    }
  }
}
layer {
  name: "conv13_3"
  type: "Convolution"
  bottom: "conv12_3"
  top: "conv13_3"
  param {
    lr_mult: 1
  }
  param {
    lr_mult: 2
  }
  convolution_param {
    num_output: 1
    kernel_size: 5
    stride: 1
    pad: 2
    weight_filler {
      type: "xavier"
    }
    bias_filler {
      type: "constant"
    }
  }
}
layer {
  name: "conv13_4"
  type: "Convolution"
  bottom: "conv12_4"
  top: "conv13_4"
  param {
    lr_mult: 1
  }
  param {
    lr_mult: 2
  }
  convolution_param {
    num_output: 1
    kernel_size: 5
    stride: 1
    pad: 2
    weight_filler {
      type: "xavier"
    }
    bias_filler {
      type: "constant"
    }
  }
}
layer {
  name: "conv13_5"
  type: "Convolution"
  bottom: "conv12_5"
  top: "conv13_5"
  param {
    lr_mult: 1
  }
  param {
    lr_mult: 2
  }
  convolution_param {
    num_output: 1
    kernel_size: 5
    stride: 1
    pad: 2
    weight_filler {
      type: "xavier"
    }
    bias_filler {
      type: "constant"
    }
  }
}
layer {
  name: "conv13_6"
  type: "Convolution"
  bottom: "conv12_6"
  top: "conv13_6"
  param {
    lr_mult: 1
  }
  param {
    lr_mult: 2
  }
  convolution_param {
    num_output: 1
    kernel_size: 5
    stride: 1
    pad: 2
    weight_filler {
      type: "xavier"
    }
    bias_filler {
      type: "constant"
    }
  }
}
layer {
  name: "conv13_7"
  type: "Convolution"
  bottom: "conv12_7"
  top: "conv13_7"
  param {
    lr_mult: 1
  }
  param {
    lr_mult: 2
  }
  convolution_param {
    num_output: 1
    kernel_size: 5
    stride: 1
    pad: 2
    weight_filler {
      type: "xavier"
    }
    bias_filler {
      type: "constant"
    }
  }
}
layer {
  name: "conv13_8"
  type: "Convolution"
  bottom: "conv12_8"
  top: "conv13_8"
  param {
    lr_mult: 1
  }
  param {
    lr_mult: 2
  }
  convolution_param {
    num_output: 1
    kernel_size: 5
    stride: 1
    pad: 2
    weight_filler {
      type: "xavier"
    }
    bias_filler {
      type: "constant"
    }
  }
}
layer {
  name: "conv13_9"
  type: "Convolution"
  bottom: "conv12_9"
  top: "conv13_9"
  param {
    lr_mult: 1
  }
  param {
    lr_mult: 2
  }
  convolution_param {
    num_output: 1
    kernel_size: 5
    stride: 1
    pad: 2
    weight_filler {
      type: "xavier"
    }
    bias_filler {
      type: "constant"
    }
  }
}
layer {
  name: "conv13_10"
  type: "Convolution"
  bottom: "conv12_10"
  top: "conv13_10"
  param {
    lr_mult: 1
  }
  param {
    lr_mult: 2
  }
  convolution_param {
    num_output: 1
    kernel_size: 5
    stride: 1
    pad: 2
    weight_filler {
      type: "xavier"
    }
    bias_filler {
      type: "constant"
    }
  }
}
layer {
  name: "conv13_11"
  type: "Convolution"
  bottom: "conv12_11"
  top: "conv13_11"
  param {
    lr_mult: 1
  }
  param {
    lr_mult: 2
  }
  convolution_param {
    num_output: 1
    kernel_size: 5
    stride: 1
    pad: 2
    weight_filler {
      type: "xavier"
    }
    bias_filler {
      type: "constant"
    }
  }
}
layer {
  name: "conv13_12"
  type: "Convolution"
  bottom: "conv12_12"
  top: "conv13_12"
  param {
    lr_mult: 1
  }
  param {
    lr_mult: 2
  }
  convolution_param {
    num_output: 1
    kernel_size: 5
    stride: 1
    pad: 2
    weight_filler {
      type: "xavier"
    }
    bias_filler {
      type: "constant"
    }
  }
}
layer {
  name: "conv13_13"
  type: "Convolution"
  bottom: "conv12_13"
  top: "conv13_13"
  param {
    lr_mult: 1
  }
  param {
    lr_mult: 2
  }
  convolution_param {
    num_output: 1
    kernel_size: 5
    stride: 1
    pad: 2
    weight_filler {
      type: "xavier"
    }
    bias_filler {
      type: "constant"
    }
  }
}
layer {
  name: "conv13_14"
  type: "Convolution"
  bottom: "conv12_14"
  top: "conv13_14"
  param {
    lr_mult: 1
  }
  param {
    lr_mult: 2
  }
  convolution_param {
    num_output: 1
    kernel_size: 5
    stride: 1
    pad: 2
    weight_filler {
      type: "xavier"
    }
    bias_filler {
      type: "constant"
    }
  }
}
layer {
  name: "conv13_15"
  type: "Convolution"
  bottom: "conv12_15"
  top: "conv13_15"
  param {
    lr_mult: 1
  }
  param {
    lr_mult: 2
  }
  convolution_param {
    num_output: 1
    kernel_size: 5
    stride: 1
    pad: 2
    weight_filler {
      type: "xavier"
    }
    bias_filler {
      type: "constant"
    }
  }
}
layer {
  name: "conv13_16"
  type: "Convolution"
  bottom: "conv12_16"
  top: "conv13_16"
  param {
    lr_mult: 1
  }
  param {
    lr_mult: 2
  }
  convolution_param {
    num_output: 1
    kernel_size: 5
    stride: 1
    pad: 2
    weight_filler {
      type: "xavier"
    }
    bias_filler {
      type: "constant"
    }
  }
}
layer {
  name: "conv13_17"
  type: "Convolution"
  bottom: "conv12_17"
  top: "conv13_17"
  param {
    lr_mult: 1
  }
  param {
    lr_mult: 2
  }
  convolution_param {
    num_output: 1
    kernel_size: 5
    stride: 1
    pad: 2
    weight_filler {
      type: "xavier"
    }
    bias_filler {
      type: "constant"
    }
  }
}
layer {
  name: "conv13_18"
  type: "Convolution"
  bottom: "conv12_18"
  top: "conv13_18"
  param {
    lr_mult: 1
  }
  param {
    lr_mult: 2
  }
  convolution_param {
    num_output: 1
    kernel_size: 5
    stride: 1
    pad: 2
    weight_filler {
      type: "xavier"
    }
    bias_filler {
      type: "constant"
    }
  }
}
layer {
  name: "conv13_19"
  type: "Convolution"
  bottom: "conv12_19"
  top: "conv13_19"
  param {
    lr_mult: 1
  }
  param {
    lr_mult: 2
  }
  convolution_param {
    num_output: 1
    kernel_size: 5
    stride: 1
    pad: 2
    weight_filler {
      type: "xavier"
    }
    bias_filler {
      type: "constant"
    }
  }
}
layer {
  name: "conv13_20"
  type: "Convolution"
  bottom: "conv12_20"
  top: "conv13_20"
  param {
    lr_mult: 1
  }
  param {
    lr_mult: 2
  }
  convolution_param {
    num_output: 1
    kernel_size: 5
    stride: 1
    pad: 2
    weight_filler {
      type: "xavier"
    }
    bias_filler {
      type: "constant"
    }
  }
}
layer {
  name: "conv13_21"
  type: "Convolution"
  bottom: "conv12_21"
  top: "conv13_21"
  param {
    lr_mult: 1
  }
  param {
    lr_mult: 2
  }
  convolution_param {
    num_output: 1
    kernel_size: 5
    stride: 1
    pad: 2
    weight_filler {
      type: "xavier"
    }
    bias_filler {
      type: "constant"
    }
  }
}
layer {
  name: "conv13_22"
  type: "Convolution"
  bottom: "conv12_22"
  top: "conv13_22"
  param {
    lr_mult: 1
  }
  param {
    lr_mult: 2
  }
  convolution_param {
    num_output: 1
    kernel_size: 5
    stride: 1
    pad: 2
    weight_filler {
      type: "xavier"
    }
    bias_filler {
      type: "constant"
    }
  }
}
layer {
  name: "conv13_23"
  type: "Convolution"
  bottom: "conv12_23"
  top: "conv13_23"
  param {
    lr_mult: 1
  }
  param {
    lr_mult: 2
  }
  convolution_param {
    num_output: 1
    kernel_size: 5
    stride: 1
    pad: 2
    weight_filler {
      type: "xavier"
    }
    bias_filler {
      type: "constant"
    }
  }
}
layer {
  name: "conv13_24"
  type: "Convolution"
  bottom: "conv12_24"
  top: "conv13_24"
  param {
    lr_mult: 1
  }
  param {
    lr_mult: 2
  }
  convolution_param {
    num_output: 1
    kernel_size: 5
    stride: 1
    pad: 2
    weight_filler {
      type: "xavier"
    }
    bias_filler {
      type: "constant"
    }
  }
}
layer {
  name: "conv13_25"
  type: "Convolution"
  bottom: "conv12_25"
  top: "conv13_25"
  param {
    lr_mult: 1
  }
  param {
    lr_mult: 2
  }
  convolution_param {
    num_output: 1
    kernel_size: 5
    stride: 1
    pad: 2
    weight_filler {
      type: "xavier"
    }
    bias_filler {
      type: "constant"
    }
  }
}
layer {
  name: "conv13_26"
  type: "Convolution"
  bottom: "conv12_26"
  top: "conv13_26"
  param {
    lr_mult: 1
  }
  param {
    lr_mult: 2
  }
  convolution_param {
    num_output: 1
    kernel_size: 5
    stride: 1
    pad: 2
    weight_filler {
      type: "xavier"
    }
    bias_filler {
      type: "constant"
    }
  }
}
layer {
  name: "conv13_27"
  type: "Convolution"
  bottom: "conv12_27"
  top: "conv13_27"
  param {
    lr_mult: 1
  }
  param {
    lr_mult: 2
  }
  convolution_param {
    num_output: 1
    kernel_size: 5
    stride: 1
    pad: 2
    weight_filler {
      type: "xavier"
    }
    bias_filler {
      type: "constant"
    }
  }
}
layer {
  name: "conv13_28"
  type: "Convolution"
  bottom: "conv12_28"
  top: "conv13_28"
  param {
    lr_mult: 1
  }
  param {
    lr_mult: 2
  }
  convolution_param {
    num_output: 1
    kernel_size: 5
    stride: 1
    pad: 2
    weight_filler {
      type: "xavier"
    }
    bias_filler {
      type: "constant"
    }
  }
}
layer {
  name: "conv13_29"
  type: "Convolution"
  bottom: "conv12_29"
  top: "conv13_29"
  param {
    lr_mult: 1
  }
  param {
    lr_mult: 2
  }
  convolution_param {
    num_output: 1
    kernel_size: 5
    stride: 1
    pad: 2
    weight_filler {
      type: "xavier"
    }
    bias_filler {
      type: "constant"
    }
  }
}
layer {
  name: "conv13_30"
  type: "Convolution"
  bottom: "conv12_30"
  top: "conv13_30"
  param {
    lr_mult: 1
  }
  param {
    lr_mult: 2
  }
  convolution_param {
    num_output: 1
    kernel_size: 5
    stride: 1
    pad: 2
    weight_filler {
      type: "xavier"
    }
    bias_filler {
      type: "constant"
    }
  }
}
layer {
  name: "conv13_31"
  type: "Convolution"
  bottom: "conv12_31"
  top: "conv13_31"
  param {
    lr_mult: 1
  }
  param {
    lr_mult: 2
  }
  convolution_param {
    num_output: 1
    kernel_size: 5
    stride: 1
    pad: 2
    weight_filler {
      type: "xavier"
    }
    bias_filler {
      type: "constant"
    }
  }
}
layer {
  name: "concat9"
  type: "Concat"
  bottom: "conv13_1"
  bottom: "conv13_2"
  bottom: "conv13_3"
  bottom: "conv13_4"
  bottom: "conv13_5"
  bottom: "conv13_6"
  bottom: "conv13_7"
  bottom: "conv13_8"
  bottom: "conv13_9"
  bottom: "conv13_10"
  bottom: "conv13_11"
  bottom: "conv13_12"
  bottom: "conv13_13"
  bottom: "conv13_14"
  bottom: "conv13_15"
  bottom: "conv13_16"
  bottom: "conv13_17"
  bottom: "conv13_18"
  bottom: "conv13_19"
  bottom: "conv13_20"
  bottom: "conv13_21"
  bottom: "conv13_22"
  bottom: "conv13_23"
  bottom: "conv13_24"
  bottom: "conv13_25"
  bottom: "conv13_26"
  bottom: "conv13_27"
  bottom: "conv13_28"
  bottom: "conv13_29"
  bottom: "conv13_30"
  bottom: "conv13_31"
  top: "concat9"
  concat_param {
    axis: 1
  }
}
layer {
  name: "eltwise1"
  type: "Eltwise"
  bottom: "concat7"
  bottom: "concat9"
  top: "eltwise1"
  eltwise_param {
    operation: SUM
  }
}
layer {
  name: "error"
  type: "EuclideanLoss"
  bottom: "eltwise1"
  bottom: "data"
  top: "error"
  include {
    phase: TEST
  }
}
layer {
  name: "loss"
  type: "EuclideanLoss"
  bottom: "eltwise1"
  bottom: "data"
  top: "loss"
  include {
    phase: TRAIN
  }
}
